pybo/views/best_lstm.pt (torch, 76771 bytes, 6 tensors)

lstm.weight_ih_l0 f4 [256, 7]
0.09940182 -0.062976375 -0.0073307636 0.004970341 0.045011148 0.05327521 0.06726229 -0.11768588
-0.07191789 0.051497936 -0.05064358 -0.10944216 0.095659114 0.07927558 0.08704494 -0.041593384
-0.059761025 -0.060851082 0.07151954 0.104813844 -0.052043363 -0.07967278 -0.09647081 -0.017366836
0.04202701 0.031759042 0.040411804 -0.0023179166 -0.024318425 0.0979419 -0.050739795 -0.08450606
-0.019119475 -0.064046375 -0.012333657 -0.061781246 0.074499086 -0.0754433 -0.10632509 -0.040199474
0.087099515 -0.11702772 0.10421965 0.0746379 -0.042769313 0.028973939 -0.061838657 0.0691065
-0.056856647 0.10546882 0.04466164 -0.0328128 0.063707426 -0.053601146 -0.026864732 -0.018391594
-0.119459495 0.011228637 -0.011664172 0.032394156 0.108391926 -0.12135405 0.098444104 0.0024941482
-0.109563984 -0.09004671 -0.09573069 -0.081262596 -0.062481508 -0.074007206 -0.11348951 -0.055111762
0.103377685 0.03854121 -0.03278613 -0.06600757 -0.03627707 0.03334918 0.017517634 0.058438502
-0.063879915 -0.10748827 0.012733202 -0.092707835 0.08371893 -0.08267928 -0.11328517 0.076311916
-0.09928334 0.024693966 0.11497936 0.015148299 0.12423173 0.067439556 -0.029805427 0.015540146
-0.086249635 0.12554581 0.09983825 0.048348784 -0.11962495 0.11801019 -0.024178317 -0.043870594
0.1258789 0.06468925 -0.044620406 0.015201563 0.09436939 0.051024172 -0.07374137 -0.009390498
0.09157038 -0.017709654 0.103577025 0.110905275 -0.007840579 0.0018989135 0.023919461 0.08113993
-0.017255226 -0.025085945 0.046130463 0.117431216 -0.07786589 0.041172717 0.0037983165 0.10532699
-0.029954044 -0.12028216 -0.070266336 -0.056781285 -0.054610327 0.078498445 -0.03704034 0.07180869
-0.06849428 0.05378735 0.094500646 -0.09131889 -0.10450767 -0.07919356 -0.007620926 0.090421885
-0.054721437 -0.10412996 -0.006285589 0.105441034 0.069682136 0.1214674 -0.020685375 -0.08162989
-0.10082701 0.0077735055 0.11009489 -0.048744217 -0.06382283 -0.052114036 0.11393359 0.051798217
0.0776588 0.113854684 -0.04889608 0.037452806 0.016750524 -0.015322581 0.09969236 0.027188212
0.04548402 -0.07782468 0.04251223 0.025226023 0.05200998 0.016938224 0.03875139 -0.058070924
-0.030899575 -0.010740577 -0.04531734 0.05548016 0.037716433 0.07342881 0.015995365 0.108290896
0.10816317 -0.096730344 0.017734487 -0.088571735 -0.012508901 0.097738676 -0.07680405 0.0212083
-0.044253033 -0.011867735 -0.059167545 0.06335327 -0.0058617108 0.07601001 0.07447293 0.056091137
-0.04732977 0.0364057 0.08865679 0.12147125 -0.085558094 0.073135875 -0.10314405 -0.11936509
-0.09677929 0.068320185 -0.062253855 -0.037404865 0.05960766 -0.016939605 0.039830137 0.067343585
-0.06534258 -0.082258865 0.12151351 -0.04078522 -0.050772987 0.08068256 0.036359612 0.025385633
0.0500044 -0.083749175 -0.086378634 -0.013275108 -0.02383512 0.07217816 -0.015721401 -0.0862077
0.07168398 -0.011227535 -0.10639548 -0.04389624 -0.015208374 0.079768196 0.028074905 -0.105850436
-0.09963899 0.119959995 0.0049071326 -0.10035527 0.121106796 -0.010697659 0.10689042 -0.044647314
0.107050896 -0.06437765 -0.081915624 0.037273783 -0.0899947 -0.042951547 -0.05366619 0.075884886
00000000: 2e93 cb3d c2f9 80bd e736 f0bb 3ede a23b
00000010: 9c5d 383d 1b37 5a3d d0c0 893d 4b05 f1bd
00000020: b049 93bd 80ef 523d a46f 4fbd 3623 e0bd
00000030: ede8 c33d 3c5b a23d 9e44 b23d d35d 2abd
00000040: fac7 74bd fc3e 79bd d678 923d a4a8 d63d
00000050: 6c2b 55bd 7c2b a3bd 7d92 c5bd e544 8ebc
00000060: 8424 2c3d c515 023d d986 253d 30e8 17bb
00000070: 6f37 c7bc c395 c83d 88d4 4fbd 8311 adbd
00000080: 72a0 9cbc bf2a 83bd 1b13 4abc 550e 7dbd
00000090: fa92 983d 0482 9abd f8c0 d9bd 34a8 24bd
000000a0: 3b61 b23d 3bac efbd 1d71 d53d c1db 983d
000000b0: e02e 2fbd c15a ed3c 884a 7dbd b587 8d3d
000000c0: 84e2 68bd 0900 d83d 20ef 363d b766 06bd
000000d0: 0a79 823d e08c 5bbd 6d13 dcbc f8a9 96bc
000000e0: 2ea7 f4bd 51f8 373c 151b 3fbc bcaf 043d
000000f0: 96fc dd3d 7988 f8bd 109d c93d dd74 233b
00000100: 1563 e0bd 696a b8bd 740e c4bd 016d a6bd
00000110: 9cec 7fbd 1791 97bd 306d e8bd dfbc 61bd
00000120: aeb7 d33d 63dd 1d3d c04a 06bd fa2e 87bd
00000130: 4497 14bd 2699 083d 2481 8f3c 365d 6f3d
00000140: 79d3 82bd cf22 dcbd ec9e 503c 9bdd bdbd
00000150: d574 ab3d c153 a9bd 0e02 e8bd 6c49 9c3d
00000160: 1055 cbbd 004b ca3c 4c7a eb3d 9230 783c
00000170: 356d fe3d c01d 8a3d 832a f4bc 199c 7e3c
00000180: a6a3 b0bd 158f 003e ff77 cc3d 6009 463d
00000190: edfd f4bd 54af f13d 9b11 c6bc a7b1 33bd
000001a0: 66e6 003e cc7b 843d e3c3 36bd fa0f 793c
000001b0: bd44 c13d b9fe 503d b705 97bd 9ada 19bc
000001c0: 4089 bb3d d613 91bc 3120 d43d 4e22 e33d
000001d0: c675 00bc f7e4 f83a bff2 c33c b12c a63d
000001e0: d55a 8dbc 0a81 cdbc 4cf3 3c3d c77f f03d
000001f0: 2778 9fbd b9a4 283d 2ded 783b adb5 d73d
00000200: 2f62 f5bc 7e56 f6bd cce7 8fbd 7e93 68bd
00000210: 14af 5fbd cbc3 a03d 9db7 17bd 6f10 933d
00000220: bb46 8cbd 2050 5c3d 8e89 c13d 6605 bbbd
00000230: 1e08 d6bd 3c30 a2bd f6b8 f9bb 1c2f b93d
00000240: 9623 60bd 1742 d5bd 58f7 cdbb 78f1 d73d
00000250: 82b5 8e3d e6c3 f83d 6074 a9bc 922d a7bd
00000260: 647e cebd e4b8 fe3b 6e79 e13d 04a8 47bd
00000270: 8bb5 82bd 8775 55bd 0456 e93d 5e2a 543d
00000280: 940b 9f3d a52c e93d 4247 48bd 1d68 193d
00000290: 6538 893c 900b 7bbc 822b cc3d d0b9 de3c
000002a0: 744d 3a3d 8c62 9fbd 4e21 2e3d cea6 ce3c
000002b0: 6b08 553d 08c2 8a3c c7b9 1e3d c7db 6dbd
000002c0: 1b21 fdbc 3ff9 2fbc ad9e 39bd 2a3f 633d
000002d0: 8c7c 1a3d d861 963d b608 833c 9ec7 dd3d
000002e0: a784 dd3d 8f1a c6bd ea47 913c 1965 b5bd
000002f0: 22f2 4cbc 372b c83d 714b 9dbd 07bd ad3c
00000300: ab42 35bd e370 42bc ab59 72bd 5cbf 813d
00000310: 9813 c0bb 23ab 9b3d 4385 983d d2bf 653d
00000320: dcdc 41bd 251e 153d b191 b53d ebc5 f83d
00000330: 1539 afbd 43c8 953d 303d d3bd af75 f4bd
00000340: 3834 c6bd 74eb 8b3d e6fd 7ebd d835 19bd
00000350: 2927 743d edc4 8abc ed24 233d 6feb 893d
00000360: 55d2 85bd 5677 a8bd 13dc f83d 670e 27bd
00000370: 56f7 4fbd e63c a53d d1ed 143d 88f5 cf3c
00000380: 6ad1 4c3d b084 abbd 48e7 b0bd d77f 59bc
00000390: df41 c3bc 25d2 933d 2bca 80bc aa8d b0bd
000003a0: 0dcf 923d b2f3 37bc e0e5 d9bd 8bcc 33bd
000003b0: 8b2c 79bc 825d a33d 58fd e53c 1dc8 d8bd
000003c0: 870f ccbd 96ad f53d 03cc a03b 1087 cdbd
000003d0: d706 f83d 3c45 2fbc 5de9 da3d 1ae0 36bd
000003e0: 803d db3d 6ed8 83bd 61c3 a7bd 65ac 183d
000003f0: 244f b8bd f6ed 2fbd 14d1 5bbd 8969 9b3d

lstm.weight_hh_l0 f4 [256, 64]
0.12794307 0.1276504 0.020718003 -0.006029321 0.093775555 0.0017836225 0.023777217 0.03877751
0.07172371 0.004826663 0.012590414 -0.07623277 0.010434013 -0.03274676 0.09782623 -0.12855648
-0.1184112 0.08140865 0.10941777 -0.11227813 -0.077534884 -0.08912858 -0.04180842 -0.08786137
-0.12536481 0.048988484 -0.010516786 -0.023119446 -0.055124063 -0.037971888 0.10068047 0.062608406
-0.056794085 0.09410754 -0.022015532 -0.07117981 -0.04246791 0.013280399 0.027799811 -0.036294445
-0.006366751 0.1074701 -0.011140452 -0.1078793 -0.002609949 -0.07354168 0.034324445 -0.034309596
0.044666782 0.0062958444 0.09277754 0.005421978 -0.0007332469 0.029132452 0.08480347 0.02569425
0.012783265 0.016462311 -0.050175093 0.050198507 0.028036851 0.0051246677 -0.10160482 0.07312883
-0.086830445 0.08863166 0.026813515 0.046928477 -0.09258723 -0.018452147 -0.05996612 0.1165511
-0.10435581 0.06908624 0.0967764 -0.04916734 0.0746711 -0.08580937 -0.07166414 0.09699579
-0.108380206 0.104285754 0.032157857 0.09117596 -0.011693318 -0.1088224 -0.100535884 0.0064756405
-0.019054502 -0.034864653 -0.10543938 0.019565852 -0.011215534 0.09960008 -0.0010103757 -0.0107580405
0.08831548 -0.02456511 -0.121943064 0.05519037 0.121468075 0.041664902 0.05741509 -0.006973781
-0.061826587 0.12342023 -0.07947784 -0.004570863 -0.07133602 0.037791107 0.034719806 -0.035213403
-0.042167142 -0.030985828 -0.073596515 0.007904733 0.10132758 0.028115008 -0.038895108 -0.025518477
0.07302194 -0.0076149926 -0.041181173 0.10528354 -0.122678354 -0.12944286 0.04043572 0.074578635
0.09825482 -0.04906592 0.11485249 0.070388325 0.048813287 0.090722926 0.043192554 0.01564965
-0.028831376 -0.09585271 -0.07012281 -0.075882494 -0.05354311 0.10963824 0.012522209 0.10015275
0.042260773 -0.10359446 0.03727112 0.00970296 0.1272107 -0.06372356 -0.100916274 -0.112519376
0.12830408 -0.012225231 -0.08344354 0.059201457 -0.091626376 -0.087767676 0.013858383 -0.029348277
-0.01204903 0.04497854 0.041651398 -0.037536655 -0.11253476 -0.044771742 0.06979826 -0.060416523
0.109886356 -0.010509663 -0.0940642 -0.096945286 0.058912676 0.06809683 -0.057105467 -0.088949494
0.026465015 -0.027486168 0.09425053 0.012667984 0.052682098 -0.109560184 0.10743975 -0.11637371
-0.06825359 -0.030217027 0.10435626 0.087908566 -0.030838761 0.06302241 0.03040368 0.00047776054
0.11768892 0.12373058 -0.0796773 0.096479565 0.103761785 -0.08311724 0.12593032 -0.03222293
0.019675307 -0.019555157 -0.08231396 0.05034977 -0.050015002 0.03537515 -0.11842646 -0.042070433
-0.029085413 0.06645332 0.07446177 0.04247327 0.0063113747 -0.019331062 0.02532193 -0.028050441
-0.11027235 -0.03451674 -0.066681206 -0.047002725 0.00835697 0.037887182 -0.048738487 0.09223814
0.011118164 0.04984857 -0.023038983 -0.11767879 0.03371186 -0.06144737 -0.048002437 0.110614516
0.06911209 -0.07462569 -0.08812686 0.032649625 0.0056349 -0.10220275 -0.10592874 0.051668897
-0.029257992 0.060534988 0.025777992 -0.07880697 0.06036656 0.030766292 0.10269809 0.08874392
0.06896397 -0.10194209 -0.11839692 0.049210742 -0.019808147 -0.09136103 0.046245053 0.03592972
00000000: 8203 033e c9b6 023e cdb8 a93c 9c91 c5bb
00000010: 660d c03d 71c8 e93a 70c8 c23c 2bd5 1e3d
00000020: e1e3 923d fc28 9e3b 0648 4e3c ed1f 9cbd
00000030: 6cf3 2a3c 7721 06bd 1e59 c83d 4fa4 03be
00000040: 9281 f2bd 94b9 a63d 6c16 e03d 14f2 e5bd
00000050: 9cca 9ebd 0c89 b6bd 4e3f 2bbd a9f0 b3bd
00000060: a25f 00be 26a8 483d 994e 2cbc fe64 bdbc
00000070: c5c9 61bd 6988 1bbd 9031 ce3d d638 803d
00000080: eaa0 68bd 74bb c03d eb59 b4bc b8c6 91bd
00000090: d5f2 2dbd 0896 593c 6ebc e33c 7ca9 14bd
000000a0: 2ea0 d0bb 4919 dc3d 7186 36bc d3ef dcbd
000000b0: ae0b 2bbb 059d 96bd ca97 0c3d 3888 0cbd
000000c0: 84f4 363d 5f4d ce3b 2702 be3d d9aa b13b
000000d0: 5e37 40ba 2ea7 ee3c 71ad ad3d bf7c d23c
000000e0: e670 513c f8db 863c 6684 4dbd f39c 4d3d
000000f0: 8aad e53c d4ec a73b 3016 d0bd 91c4 953d
00000100: 29d4 b1bd 8484 b53d 04a8 db3c 1338 403d
00000110: 609e bdbd f528 97bc 099f 75bd 58b2 ee3d
00000120: 80b8 d5bd 167d 8d3d b532 c63d b163 49bd
00000130: 29ed 983d d3bc afbd a6c4 92bd bba5 c63d
00000140: 71f6 ddbd c593 d53d f5b7 033d 76ba ba3d
00000150: 5595 3fbc 47de debd c2e5 cdbd 9c31 d43b
00000160: 3018 9cbc 3dce 0ebd 9af0 d7bd 9148 a03c
00000170: 5cc1 37bc 20fb cb3d 956e 84ba 7e42 30bc
00000180: bfde b43d c53c c9bc 49bd f9bd 4c0f 623d
00000190: 41c4 f83d d1a8 2a3d 162c 6b3d 5184 e4bb
000001a0: e03d 7dbd bfc3 fc3d 47c5 a2bd 2ec7 95bb
000001b0: 9f18 92bd d9ca 1a3d 5b36 0e3d ee3b 10bd
000001c0: 74b7 2cbd fed5 fdbc c5b9 96bd da82 013c
000001d0: d684 cf3d 7251 e63c 7a50 1fbd 200c d1bc
000001e0: 878c 953d 3087 f9bb 97ad 28bd e69e d73d
000001f0: ca3e fbbd ab8c 04be ed9f 253d afbc 983d
00000200: d339 c93d 59f9 48bd c837 eb3d c127 903d
00000210: 71f0 473d f1cc b93d adea 303d b233 803c
00000220: c72f ecbc 6d4e c4bd 8c9c 8fbd 4868 9bbd
00000230: 0550 5bbd 038a e03d f429 4d3c e31c cd3d
00000240: a219 2d3d 5529 d4bd 9aa9 183d 2af9 1e3c
00000250: 8643 023e 7f81 82bd 31ad cebd 8f70 e6bd
00000260: 2562 033e 564c 48bc 72e4 aabd 3a7d 723d
00000270: 9ca6 bbbd 8abf b3bd 450e 633c cc6b f0bc
00000280: 4b69 45bc 6b3b 383d a89a 2a3d 09c0 19bd
00000290: a078 e6bd 9362 37bd 64f2 8e3d 5177 77bd
000002a0: 190c e13d b930 2cbc bba4 c0bd 408b c6bd
000002b0: 6b4e 713d 5a76 8b3d 6ce7 69bd 272b b6bd
000002c0: 29cd d83c ac2a e1bc 6c06 c13d 608d 4f3c
000002d0: 2fc9 573d 1761 e0bd 5f09 dc3d 5755 eebd
000002e0: 8ac8 8bbd b389 f7bc bcb8 d53d 6809 b43d
000002f0: 92a1 fcbc e511 813d 2311 f93c ef7b fa39
00000300: e306 f13d 7566 fd3d da2d a3bd 1497 c53d
00000310: 0f81 d43d 5f39 aabd e1f3 003e 31fc 03bd
00000320: 1c2e a13c 2332 a0bc 3994 a8bd 8f3b 4e3d
00000330: 88dc 4cbd 89e5 103d 9289 f2bd 0c52 2cbd
00000340: 8844 eebc ae18 883d 6a7f 983d 74f8 2d3d
00000350: a6cf ce3b 2d5c 9ebc f06f cf3c 0aca e5bc
00000360: 78d6 e1bd 6d61 0dbd 2890 88bd ee85 40bd
00000370: aceb 083c 972f 1b3d 02a2 47bd 5ae7 bc3d
00000380: f628 363c 042e 4c3d 40bc bcbc 9401 f1bd
00000390: 7315 0a3d 3db0 7bbd 349e 44bd dd89 e23d
000003a0: a48a 8d3d 5bd5 98bd db7b b4bd 9dbb 053d
000003b0: f8a4 b83b ad4f d1bd 2bf1 d8bd c4a2 533d
000003c0: 75ae efbc 89f3 773d 5e2c d33c 8c65 a1bd
000003d0: ed42 773d 9709 fc3c 6053 d23d 5fbf b53d
000003e0: fb3c 8d3d 04c7 d0bd 167a f2bd 3491 493d
000003f0: b244 a2bc 7e1b bbbd 746b 3d3d 0b2b 133d

lstm.bias_ih_l0 f4 [256]
-0.035306685 0.027965877 -0.05945758 0.0702246 -0.08021484 0.034233835 -0.07875449 0.021237448
0.123552404 0.009759793 0.053834442 0.085004255 0.016171608 0.03199937 0.03536139 0.028768254
0.12018233 -0.07675369 -0.0040630577 -0.028884156 0.034145255 -0.11874117 -0.11136131 -0.00029247644
-0.03236048 0.0016825728 0.09913439 -0.083431385 0.074475646 0.08511965 -0.09498204 0.070545204
-0.01881034 0.00989379 -0.038674727 -0.04893248 -0.052229602 -0.025147641 -0.12848638 0.12574467
-0.082604 0.09565115 0.051909406 -0.014696162 -0.061430924 0.12145685 0.014306835 0.06934672
-0.1053387 -0.018114561 0.11188083 0.08744976 0.041046467 0.11495296 -0.12011073 0.10360374
0.11693219 -0.03318281 0.092899226 -0.02456676 -0.041743167 0.03405071 -0.039481785 -0.03978345
0.035233982 -0.012860671 -0.08955436 -0.07893901 0.027227417 -0.09252127 0.032973785 0.097282015
0.0092654545 0.10535974 -0.024394795 -0.016425496 0.033602003 0.02716246 -0.033705402 0.00020366856
0.07891608 -0.069183595 -0.02603035 -0.045368347 0.10886044 -0.102572955 0.06248915 0.03991712
-0.11495183 0.07947406 0.11106224 0.11788983 -0.08971076 0.055345602 0.105166584 0.045383893
0.0668934 0.07801188 -0.07967036 -0.017157283 0.11990704 0.013662611 0.02367701 -0.10621792
-0.08624781 0.12132375 0.042150177 0.0888723 -0.0275766 -0.11998159 0.008805528 0.0917519
-0.10374185 0.04340744 0.05876329 -0.012855269 0.054145996 0.020557791 0.049674947 -0.06532997
-0.097801425 0.0819349 -0.120002836 -0.10078128 -0.0026446676 -0.107160054 0.017236052 0.07923042
-0.031336214 0.021328399 -0.10190085 -0.079358734 -0.074484974 0.12899065 0.007307471 0.06680341
-0.03989667 0.09245087 -0.06588514 -0.08576647 0.069351606 -0.09996375 -0.12790239 0.10640771
-0.08497467 0.040266953 0.11657415 0.09018358 0.0030558843 -0.021121958 -0.006831952 -0.023695756
0.08730878 0.11008018 -0.12563948 -0.020803107 -0.031787246 -0.12582654 -0.09116991 -0.08513559
0.039742332 0.03632307 -0.035787944 0.099970706 0.07785616 -0.11841145 0.03298284 0.09755139
-0.01316806 0.106428586 -0.10925242 -0.073535144 0.019598296 0.091735415 -0.07763927 -0.051886506
-0.015614585 0.06476877 -0.1138149 -0.011883247 -0.12372132 0.008822282 0.008483215 -0.06662344
-0.058473002 0.10294453 0.090551995 -0.056155782 -0.012238861 -0.06793655 0.045482565 0.08423302
0.0025777104 0.12677956 0.04820177 -0.10334728 0.02542571 -0.086220406 0.006726046 -0.06438962
0.07998692 0.11457 2.2640538e-06 0.065765254 0.017835418 0.077587426 -0.04968243 -0.059012987
-0.05570921 0.08891028 -0.05991867 -0.015239356 -0.05187174 -0.11234771 -0.044080768 -0.09747942
-0.058854047 0.004642699 -0.11064598 -0.01611665 -0.043797016 -0.06357476 0.110829614 -0.09973748
0.037502706 -0.100448266 -0.033803556 -0.105782166 0.08764867 0.06247697 -0.0043338244 0.10286711
-0.04648617 0.11060565 -0.023495568 -0.09501453 0.071894966 0.11133177 -0.07786236 -0.094218776
-0.038153414 -0.042439364 0.0016485514 0.047877252 -0.017820094 0.024335546 -0.119762264 0.04009006
0.102813706 -0.11100912 0.07784384 0.037381396 -0.11134879 0.11558229 -0.05344531 -0.119798504
00000000: be9d 10bd b218 e53c cb89 73bd ead1 8f3d
00000010: ae47 a4bd c738 0c3d 094a a1bd 28fa ad3c
00000020: 0b09 fd3d 8ae7 1f3c 8181 5c3d b616 ae3d
00000030: 527a 843c c511 033d 1bd7 103d 67ab eb3c
00000040: 2722 f63d 0a31 9dbd 6623 85bb 779e ecbc
00000050: e5db 0b3d 922e f3bd 6611 e4bd 8657 99b9
00000060: 6c8c 04bd c689 dc3a f906 cb3d 13de aabd
00000070: b086 983d 3653 ae3d f285 c2bd 017a 903d
00000080: 2418 9abc 9019 223c 6469 1ebd 6d6d 48bd
00000090: b5ee 55bd 6d02 cebc ef91 03be 36c3 003e
000000a0: 492c a9bd c0e4 c33d f59e 543d 2cc8 70bc
000000b0: fe9e 7bbd 5ebe f83d 3767 6a3c a705 8e3d
000000c0: d1bb d7bd fd64 94bc c721 e53d dc18 b33d
000000d0: 5720 283d 756c eb3d 9dfc f5bd 332e d43d
000000e0: 257a ef3d b3ea 07bd f341 be3d 3b40 c9bc
000000f0: e2fa 2abd c278 0b3d a7b7 21bd f9f3 22bd
00000100: 8251 103d 90b5 52bc 4768 b7bd c7aa a1bd
00000110: 080c df3c cb7b bdbd 850f 073d cb3b c73d
00000120: 22ce 173c d9c6 d73d 98d7 c7bc c38e 86bc
00000130: 41a2 093d cf83 de3c ad0e 0abd dd8f 5539
00000140: c19e a13d 21b0 8dbd 9a3d d5bc 29d4 39bd
00000150: 39f2 de3d c511 d2bd 9ff4 7f3d 2280 233d
00000160: dd6b ebbd 4cc3 a23d 9a74 e33d 3970 f13d
00000170: 46ba b7bd 12b2 623d 9461 d73d 76e4 393d
00000180: 68ff 883d b1c4 9f3d 372a a3bd 6e8d 8cbc
00000190: d291 f53d 25d9 5f3c 4af6 c13c c888 d9bd
000001a0: b1a2 b0bd 9678 f83d aaa5 2c3d ae02 b63d
000001b0: 52e8 e1bc e8b8 f5bd 1045 103c 6ce8 bb3d
000001c0: 9b76 d4bd 00cc 313d c7b1 703d e89e 52bc
000001d0: 31c8 5d3d d068 a83c f577 4b3d b8cb 85bd
000001e0: 1d4c c8bd 7ccd a73d 0cc4 f5bd 6a66 cebd
000001f0: 2952 2dbb bb76 dbbd 9f32 8d3c 8f43 a23d
00000200: 675a 00bd e5b8 ae3c 65b1 d0bd d586 a2bd
00000210: 948b 98bd 2016 043e 8273 ef3b 3ad0 883d
00000220: b16a 23bd e256 bd3d caee 86bd 55a6 afbd
00000230: 3708 8e3d cbb9 ccbd d8f8 02be 49ec d93d
00000240: 3307 aebd f6ee 243d 6ebe ee3d 2bb2 b83d
00000250: 3b45 483b f507 adbc 91de dfbb 9a1d c2bc
00000260: f2ce b23d b871 e13d a3a7 00be 476b aabc
00000270: 5833 02bd acd8 00be 4ab7 babd 915b aebd
00000280: dbc8 223d 80c7 143d 6196 12bd 71bd cc3d
00000290: 0d73 9f3d b481 f2bd 0419 073d 06c9 c73d
000002a0: d9be 57bc 3bf7 d93d bcbf dfbd 9899 96bd
000002b0: 9b8c a03c c7df bb3d 5601 9fbd f286 54bd
000002c0: 51d4 7fbc 7da5 843d c917 e9bd f3b1 42bc
000002d0: 9a61 fdbd 558b 103c 2ffd 0a3c df71 88bd
000002e0: 6381 6fbd 95d4 d23d 5373 b93d 9b03 66bd
000002f0: 8185 48bc 5122 8bbd ed4b 3a3d 5d82 ac3d
00000300: ceee 283b 80d2 013e 386f 453d bda7 d3bd
00000310: 9449 d03c 5394 b0bd 2a66 dc3b b5de 83bd
00000320: 2fd0 a33d ada3 ea3d 26f0 1736 efaf 863d
00000330: 951b 923c 28e6 9e3d ce7f 4bbd 9ab7 71bd
00000340: 572f 64bd 9816 b63d 486d 75bd 7eae 79bc
00000350: 7677 54bd 8e16 e6bd 098e 34bd 4aa3 c7bd
00000360: f110 71bd c821 983b 5c9a e2bd 1107 84bc
00000370: 8064 33bd 7c33 82bd a3fa e23d 2a43 ccbd
00000380: 709c 193d d2b7 cdbd 9975 0abd 52a4 d8bd
00000390: 2581 b33d dae7 7f3d c102 8ebb feab d23d
000003a0: 4868 3ebd 3785 e23d c779 c0bc fa96 c2bd
000003b0: ab3d 933d e901 e43d 4d76 9fbd c6f5 c0bd
000003c0: c146 1cbd e6d4 2dbd 3514 d83a f01a 443d
000003d0: 72fb 91bc 575b c73c eb45 f5bd 7a35 243d
000003e0: fe8f d23d c058 e3bd 976c 9f3d 3c1d 193d
000003f0: d60a e4bd 68b6 ec3d 78e9 5abd eb58 f5bd

lstm.bias_hh_l0 f4 [256]
-0.091664165 0.060396273 -0.09161116 -0.07536338 -0.031889066 -0.029796392 -0.07352326 0.013520773
0.12253311 -0.08879888 0.033344164 0.026043372 0.11732807 0.046573218 -0.0065816725 -0.013031467
-0.090728596 0.06861476 -0.0039509777 -0.090883516 0.03157916 -0.12297065 0.057462763 -0.08750456
-0.08763478 0.121129036 0.054024354 0.018905973 0.019250216 -0.09245285 -0.016722938 -0.12369904
-0.05224163 -0.0440001 0.042004798 0.09275867 -0.034242637 0.11464869 -0.11229979 0.07489055
0.10010051 -0.07150708 -0.08584992 0.10530193 0.042612012 0.07297717 -0.00075107673 0.01667832
-0.05151852 -0.07483252 -0.068412855 0.07831391 -0.11255424 -0.058982514 0.07939962 -0.0048920824
-0.10387812 -0.025034105 -0.024188166 -0.04497857 -0.087203644 0.1033023 -0.06610752 0.031901263
0.0014501032 0.08688326 0.034655713 -0.042098545 0.09646757 -0.06707587 0.10043121 0.01426842
-0.06344983 0.0013346723 -0.049762733 -0.044281453 -0.08275104 0.07421019 0.06519506 0.043046936
-0.10646683 0.080906175 0.09004399 0.008895269 -0.09659431 -0.02907799 -0.01756621 0.015207709
0.060890563 0.11675482 0.111016765 -0.06822701 0.09236798 0.026490415 0.053315148 -0.07343671
-0.020574093 -0.076301046 -0.12535925 0.069271825 -0.044641122 -0.019155424 -0.04393579 -0.008613136
-0.030567767 -0.07877577 0.017974628 0.061904464 -0.07157063 0.10951665 -0.054221082 -0.04502353
0.12202211 -0.10320261 0.09991042 0.026405266 0.054250043 0.057227086 -0.051203303 -0.07808097
0.10747301 0.111895174 -0.068858884 -0.047546797 0.061293565 -0.0025711376 0.085778035 -0.120879315
-0.017134398 -0.11966247 0.0036961893 -0.045676377 0.09094396 0.11972784 -0.05272057 0.026731662
-0.04067363 0.0796434 -0.028612053 0.0038215178 0.019881167 0.072060056 0.11843379 0.009177987
-0.04958433 -0.1187065 0.046652336 0.004957283 0.06611035 0.10002989 -0.111141294 0.10875603
-0.0821085 -0.08196157 -0.07414666 -0.07332937 -0.10477992 -0.037213217 -0.04345957 -0.059631366
0.05061974 0.0074389414 -0.05501379 -0.105423085 -0.052998986 -0.027000546 0.0634511 -0.072878785
0.040018212 0.0003855122 -0.016142542 -0.09503788 0.010933509 -0.026549308 -0.09428494 -0.05589549
0.055926956 0.055314824 -0.00804169 -0.0021395676 -0.11315842 0.056523465 -0.09649121 0.054093335
0.049072113 -0.037369687 0.12089201 0.021026272 -0.07209073 -0.11844107 0.1280757 -0.0063997842
0.061879303 -0.09467418 0.12723023 0.08420318 -0.118778065 -0.01650227 0.0982625 -0.08820181
-0.017353399 0.1226883 0.08406133 0.07764173 -0.115667835 -0.039052583 -0.11335208 0.11828168
-0.08266761 0.015259439 -0.09731413 0.06483982 0.013084998 0.11292468 -0.05913814 0.0382701
-0.006587827 0.060476955 0.00040087925 0.10332808 -0.07378899 0.03293457 -0.0035122577 0.037599247
0.10684846 -0.03622848 -0.076228976 0.07205056 0.012221183 -0.045595214 -0.08304231 0.012070826
0.062102444 -0.10182615 -0.018760914 0.07404189 0.055381887 0.06311146 0.03858172 0.034306023
-0.046736967 0.1084823 -0.04000599 0.028332364 0.0049471883 -0.1255307 -0.11782009 -0.034625225
0.11580637 0.07225135 -0.112240426 -0.09528816 0.03081502 0.01735988 -0.042792566 -0.09370722
00000000: 6cba bbbd 1562 773d a29e bbbd 1e58 9abd
00000010: 1c9e 02bd 9017 f4bc 5d93 96bd 3b86 5d3c
00000020: a4f2 fa3d 30dc b5bd e493 083d e958 d53c
00000030: b349 f03d 8fc3 3e3d 12ab d7bb ef81 55bc
00000040: eacf b9bd e585 8c3d 3477 81bb 2321 babd
00000050: 2659 013d 09d8 fbbd 135e 6b3d 9735 b3bd
00000060: dd79 b3bd 8012 f83d a448 5d3d b3e0 9a3c
00000070: a1b2 9d3c eb57 bdbd 8bfe 88bc ec55 fdbd
00000080: 52fb 55bd 7339 34bd 390d 2c3d 42f8 bd3d
00000090: 0242 0cbd efcc ea3d 6ffd e5bd 3760 993d
000000a0: 7f01 cd3d 4e72 92bd 15d2 afbd 8aa8 d73d
000000b0: ef89 2e3d 0e75 953d e8e3 44ba f9a0 883c
000000c0: 1505 53bd cb41 99bd 0a1c 8cbd 0b63 a03d
000000d0: d682 e6bd a697 71bd 459c a23d c34d a0bb
000000e0: 0dbe d4bd 5314 cdbc 4326 c6bc 733b 38bd
000000f0: d397 b2bd 2890 d33d 6163 87bd e6aa 023d
00000100: 6411 be3a daef b13d 26f3 0d3d 866f 2cbd
00000110: ca90 c53d 135f 89bd e1ae cd3d 17c6 693c
00000120: fcf1 81bd 2cf0 ae3a 02d4 4bbd 7860 35bd
00000130: 6179 a9bd 83fb 973d fd84 853d fc51 303d
00000140: 480b dabd 23b2 a53d fc68 b83d 76bd 113c
00000150: 3dd3 c5bd f734 eebc 03e7 8fbc c129 793c
00000160: 6268 793d 271d ef3d c25c e33d 9aba 8bbd
00000170: 6c2b bd3d 6d02 d93c fc60 5a3d fc65 96bd
00000180: 008b a8bc b943 9cbd 2d5e 00be 63de 8d3d
00000190: 9cd9 36bd d6eb 9cbc 04f6 33bd 1c1e 0dbc
000001a0: 4169 fabc 3155 a1bd 873f 933c 898f 7d3d
000001b0: 9f93 92bd 444a e03d ed16 5ebd 986a 38bd
000001c0: bae6 f93d e45b d3bd d69d cc3d db4f d83c
000001d0: 4b35 5e3d f366 6a3d 8eba 51bd eae8 9fbd
000001e0: cf1a dc3d 4c29 e53d e305 8dbd 6ec0 42bd
000001f0: f60e 7b3d 8880 28bb 65ac af3d 938f f7bd
00000200: 705d 8cbc 9911 f5bd c43b 723b 2717 3bbd
00000210: d440 ba3d df33 f53d 86f1 57bd 5cfc da3c
00000220: 6499 26bd 141c a33d d363 eabc 6e72 7a3b
00000230: d4dd a23c 3994 933d 6a8d f23d 455f 163c
00000240: f018 4bbd 651c f3bd 8516 3f3d b470 a23b
00000250: dd64 873d 79dc cc3d 0c9e e3bd 7bbb de3d
00000260: 8028 a8bd 78db a7bd 34da 97bd b52d 96bd
00000270: db96 d6bd e36c 18bd a902 32bd 0540 74bd
00000280: a556 4f3d 5dc2 f33b 2456 61bd 0fe8 d7bd
00000290: 7715 59bd 4030 ddbc a6f2 813d 7941 95bd
000002a0: 23ea 233d 921e ca39 5d3d 84bc 38a3 c2bd
000002b0: 7622 333c ef7d d9bc 7618 c1bd abf2 64bd
000002c0: aa13 653d cc91 623d 4bc1 03bc fd37 0cbb
000002d0: 9abf e7bd 2685 673d 2f9d c5bd f990 5d3d
000002e0: d7ff 483d f510 19bd 3b96 f73d 4a3f ac3c
000002f0: 4ea4 93bd 3b91 f2bd 4726 033e 48b5 d1bb
00000300: 2775 7d3d 89e4 c1bd a448 023e b872 ac3d
00000310: ea41 f3bd c52f 87bc d93d c93d 27a3 b4bd
00000320: b728 8ebc 0144 fb3d 5928 ac3d a102 9f3d
00000330: 42e3 ecbd 9af5 1fbd 2325 e8bd aa3d f23d
00000340: a34d a9bd ba02 7a3c a14c c7bd bdca 843d
00000350: 7662 563c 0e45 e73d d63a 72bd 1cc1 1c3d
00000360: b3de d7bb afb6 773d 1a2d d239 ac9d d33d
00000370: af1e 97bd 66e6 063d e82d 66bb ab01 1a3d
00000380: 5ed3 da3d 5164 14bd f01d 9cbd 3e8f 933d
00000390: 5b3b 483c 0cc2 3abd 1612 aabd b7c4 453c
000003a0: 225f 7e3d 3b8a d0bd 7db0 99bc 46a3 973d
000003b0: 1ed8 623d 9540 813d de07 1e3d 7984 0c3d
000003c0: 436f 3fbd f82b de3d 52dd 23bd 4619 e83c
000003d0: 061c a23b 1f8b 00be a94b f1bd 2ed3 0dbd
000003e0: e42b ed3d 84f8 933d 4fde e5bd 7026 c3bd
000003f0: c86f fc3c 4f36 8e3c 4247 2fbd 92e9 bfbd

linear.weight f4 [2, 64]
-0.009303402 -0.087349236 -0.03565761 -0.013861889 0.104000576 -0.069390625 0.10659585 -0.017557943
0.12609395 -0.08892438 -0.10123027 -0.074291624 0.010202027 0.0980588 0.077995196 -0.025758093
-0.091640666 -0.08476064 0.04458606 -0.03880657 -0.0782272 0.07729169 0.045548253 0.023366349
0.03417034 0.015692888 0.12744969 0.12900612 0.027286999 0.036155574 -0.094289124 -0.05414877
0.075082384 0.048932433 -0.011349064 -0.03504962 -0.06712645 -0.026486913 -0.06548086 -0.014167523
0.06948305 -0.06030701 -0.004904909 0.08477989 -0.11457595 0.11630881 -0.10716282 0.027601622
-0.12614131 0.038771026 0.040668275 -0.07922422 -0.015674522 -0.06646876 0.07331539 0.048785757
0.080326065 0.10274354 -0.0031207977 -0.07254333 -0.061686166 0.11659133 0.002110306 -0.1279378
0.113737345 -0.124299735 -0.10677258 0.09150127 0.05793601 0.07080762 -0.05532919 0.09319473
0.012330347 0.0043078577 0.10978829 0.088357665 -0.09292851 0.08307003 -0.07861378 0.03918128
-0.11559684 0.017154317 0.062015478 -0.018105581 0.11256782 -0.10292909 -0.014868543 -0.026220178
0.039467163 -0.07148889 -0.053732526 0.052374963 -0.058042135 -0.102176435 0.049620308 0.04690877
0.068696 -0.11505492 0.1147407 -0.07019941 -0.09393357 0.11979071 -0.07619865 -0.087047644
0.0844457 -0.010408003 0.06800904 -0.02625265 0.020315051 0.059712976 -0.039357916 0.06921889
-0.05943825 -0.10897 -0.006020395 -0.03156222 -0.009477795 -0.09579612 -0.024639405 -0.1194329
-0.057238344 0.0674011 0.08986516 -0.06414013 0.0856389 -0.0833296 0.02241238 0.12647203
00000000: 4c6d 18bc 28e4 b2bd b70d 12bd fa1c 63bc
00000010: 41fe d43d ac1c 8ebd ed4e da3d add5 8fbc
00000020: c61e 013e fc1d b6bd d151 cfbd 3526 98bd
00000030: 6726 273c 0dd3 c83d f2bb 9f3d a302 d3bc
00000040: 1aae bbbd fd96 adbd df9f 363d a3f3 1ebd
00000050: 9535 a0bd 1b4b 9e3d ce90 3a3d c96a bf3c
00000060: 33f6 0b3d 5f8e 803c 2c82 023e 2e1a 043e
00000070: fc88 df3c de17 143d a81a c1bd 1acb 5dbd
00000080: cbc4 993d 606d 483d 6df1 39bc 3190 0fbd
00000090: 9879 89bd 15fb d8bc d41a 86bd e61e 68bc
000000a0: 214d 8e3d 7c04 77bd 5cb9 a0bb 14a1 ad3d
000000b0: cca6 eabd 5033 ee3d 2e78 dbbd cc1c e23c
000000c0: 302b 01be 5ece 1e3d c793 263d 4f40 a2bd
000000d0: db67 80bc c620 88bd 6126 963d 93d3 473d
000000e0: fe81 a43d 356b d23d 4c86 4cbb 9991 94bd
000000f0: a2aa 7cbd 6fc7 ee3d 0f4d 0a3b 2002 03be
00000100: 20ef e83d dc90 febd 95ab dabd 0565 bb3d
00000110: 4f4e 6d3d 9603 913d dca0 62bd e1dc be3d
00000120: 3905 4a3c ee28 8d3b afd8 e03d ddf4 b43d
00000130: 4d51 bebd 9f20 aa3d 4300 a1bd 8d7c 203d
00000140: 09be ecbd 3687 8c3c f103 7e3d 2852 94bc
00000150: f589 e63d 7dcc d2bd 309b 73bc b3cb d6bc
00000160: 52a8 213d c468 92bd a316 5cbd 2187 563d
00000170: 97bd 6dbd e141 d1bd aa3e 4b3d 6923 403d
00000180: 7db0 8c3d eaa1 ebbd 2cfd ea3d b5c4 8fbd
00000190: 3e60 c0bd d554 f53d 0a0e 9cbd 0946 b2bd
000001a0: def1 ac3d 5486 2abc 5348 8b3d cc0f d7bc
000001b0: c06b a63c 9895 743d c435 21bd a2c2 8d3d
000001c0: 8675 73bd aa2b dfbd bc46 c5bb 6347 01bd
000001d0: c148 1bbc c230 c4bd 94d8 c9bc 3c99 f4bd
000001e0: c172 6abd 9709 8a3d 3a0b b83d e75b 83bd
000001f0: 7363 af3d b6a8 aabd 2b9a b73c e281 013e

linear.bias f4 [2]
0.082980566 -0.027104175
00000000: b7f1 a93d 9309 debc
