pybo/views/best_transformer_encoder.pt (torch, 109421 bytes, 40 tensors)

embedding.weight f4 [7, 7]
0	0x3e28bfc8	0.16479409
1	0x3dfda8e3	0.12385728
2	0x3d6648d1	0.056221787
3	0xbe062e91	-0.13103701
4	0x3e7284c9	0.23683466
5	0xbe5f6b98	-0.21818388
6	0x3d2b9ac6	0.04189565
7	0x3e6bbe4c	0.23021811
8	0xbeb5a0bb	-0.3547419
9	0x3bd04529	0.006355901
10	0xbe59a32c	-0.21253651
11	0x3e970abd	0.2950038
12	0xbe2c837e	-0.16847035
13	0xbea6db9c	-0.32589424
14	0xbe9fbc64	-0.31198418
15	0xbe642a1c	-0.22281688
16	0xbebb6b87	-0.36605474
17	0x3cdd2227	0.026993824
18	0xbe250ad1	-0.16117407
19	0xbeafa178	-0.34302878
20	0x3ebfeb9b	0.3748444
21	0x3ea43932	0.32074887
22	0x3e53fa79	0.20701016
23	0xbda0879d	-0.07838366
24	0x3e99404f	0.29931876
25	0xbe7f8859	-0.24954356
26	0x3ca20469	0.019777494
27	0x3ea7a809	0.32745388
28	0xbebe4b0f	-0.3716664
29	0xbeb8038e	-0.35940212
30	0xbeae3549	-0.34025028
31	0x3ddcd938	0.10783619
32	0x3d84a779	0.064772554
33	0xbd4f978e	-0.050681643
34	0xbe975f90	-0.29565096
35	0x3d34c0c6	0.044129156
36	0xbe58be20	-0.21166277
37	0xbe5c79bf	-0.21530817
38	0xbe6286ce	-0.22121736
39	0xbe2f3e58	-0.17113626
40	0xbdf81f78	-0.12115377
41	0xbd82478b	-0.06361302
42	0xbea4288a	-0.3206218
43	0xbda41d56	-0.08013408
44	0xbe709458	-0.23494089
45	0xbded9fdf	-0.116027586
46	0x3e8d0c97	0.27548668
47	0x3d4c34a4	0.04985489
48	0x3e491b98	0.19639432

embedding.bias f4 [7]
0	0xbd1a1248	-0.03761509
1	0x3b3b637d	0.0028593235
2	0x3e1654e0	0.14680815
3	0xbd954f7a	-0.072905496
4	0xbc7db619	-0.01548531
5	0xbe9ba59c	-0.30399787
6	0xbe48318e	-0.19550154

transformer_encoder.layers.0.self_attn.in_proj_weight f4 [21, 7]
0	0xbbd40757	-0.0064706015
1	0x3e28297a	0.16422072
2	0x3e80d88b	0.2516521
3	0xbd8e6958	-0.069536865
4	0x3e8f7a2b	0.28022894
5	0x3de5c229	0.11218674
6	0xbbbf3fa0	-0.005836442
7	0xbedc98c5	-0.43085304
8	0xbd97ee5c	-0.0741851
9	0x3e96605f	0.293704
10	0x3c9c718f	0.019097118
11	0xbda76384	-0.08173278
12	0x3ea7bf57	0.32763168
13	0x3eb9c49a	0.36282808
14	0x3eccd732	0.4000793
15	0x3eb9eba4	0.36312592
16	0x3e081ef8	0.13293064
17	0xbe048473	-0.1294115
18	0x3e460393	0.19337301
19	0x3e4fab08	0.20280087
20	0x3eaf9f58	0.34301257
21	0x3ec8a99e	0.39191908
22	0xbe2f6a2f	-0.1713035
23	0x3e84ab8a	0.25912124
24	0xbd45e041	-0.04830957
25	0xbe02efe4	-0.12786824
26	0xbe267188	-0.16254246
27	0xbe69aaba	-0.22819033
28	0xbee4304a	-0.44568092
29	0xbd4fa568	-0.050694853
30	0x3e32c37b	0.17457382
31	0xbe7e9e17	-0.24864994
32	0x3ea3f01d	0.3201913
33	0x3e17f397	0.14839016
34	0x3e8deee6	0.27721328
35	0x3d2383d9	0.03992066
36	0x3e3ff9ba	0.18747607
37	0xbeb2bee7	-0.34911272
38	0xbe417d95	-0.18895562
39	0xbb4e2807	-0.0031456964
40	0xbe13fdac	-0.14452237
41	0x3de118a8	0.10991031
42	0x3ea95850	0.3307519
43	0xbe83784a	-0.2567771
44	0x3d7db6bf	0.06194186
45	0xbd585b68	-0.052821547
46	0x3e0d764e	0.13814661
47	0x3ed35a39	0.41279772
48	0x3ecbb293	0.3978468
49	0x3ec73096	0.38904256
50	0xbe486878	-0.19571102
51	0x3eca4183	0.39503106
52	0xbd21f3ec	-0.039539263
53	0x3e8f00e2	0.2793036
54	0x3eac1f4d	0.3361763
55	0xbecb76db	-0.39739117
56	0x3e088d4d	0.13335152
57	0x3e9d658b	0.30741534
58	0xbc741d7f	-0.014899611
59	0xbedc3df4	-0.43016016
60	0xbdd432e6	-0.103612706
61	0xbddec0f5	-0.108766474
62	0xbea43f84	-0.3207971
63	0xbeb3caf0	-0.35115767
64	0x3d57978e	0.05263477
65	0x3ec190a3	0.37805662
66	0xbdac40bd	-0.08410785
67	0xbe571476	-0.21003899
68	0x3e38bd35	0.18040927
69	0x3e149224	0.14508873
70	0xbd49c564	-0.049260512
71	0x3ed5a3db	0.41726574
72	0xbe16a1a0	-0.14710093
73	0xbec1aa35	-0.3782517
74	0xbea3f66a	-0.32023937
75	0x3e977582	0.2958184
76	0xbe725e8d	-0.23668881
77	0xbd4c473a	-0.049872614
78	0xbe6e7962	-0.23288491
79	0x3dff487d	0.12464998
80	0x3eb95f52	0.36205536
81	0x3e2202f3	0.15821438
82	0x3e980165	0.29688564
83	0x3e3f857a	0.18703261
84	0x3e9b2a7a	0.30305845
85	0xbed15c35	-0.4089066
86	0xbeb78dc2	-0.3585034
87	0xbe7a2e24	-0.24431664
88	0xbe9f8a6f	-0.31160304
89	0x3ee68014	0.4501959
90	0xbe0197cc	-0.12655562
91	0x3e3a0c9f	0.18168877
92	0x3e5cf3c2	0.21577361
93	0x3ed7baa8	0.42134595
94	0xbed27116	-0.41101903
95	0x3ed19022	0.40930277
96	0xbc72e795	-0.014825721
97	0xbebce119	-0.36890486
98	0x3e94c544	0.29056752
99	0xbed70ac9	-0.42000416
100	0x3ea3cfaf	0.31994388
101	0x3e01072e	0.12600395
102	0x3e019569	0.12654652
103	0x3ea666d6	0.32500333
104	0xbe175a71	-0.14780594
105	0x3e87ce78	0.2652471
106	0x3d8b2142	0.06793453
107	0x3dfe3bed	0.12413774
108	0xbed945fa	-0.424362
109	0xbe8cd0bb	-0.27503
110	0x3e235ac5	0.15952595
111	0xbed1f2a0	-0.4100542
112	0x3e9fc257	0.31202957
113	0x3e29e826	0.16592464
114	0x3d5f74cd	0.05455475
115	0x3ec3ae83	0.3821908
116	0xbed30df2	-0.41221577
117	0x3c797182	0.015224816
118	0x3e30d252	0.17267731
119	0x3ee63435	0.44961706
120	0x3d3e8899	0.04651699
121	0xbea86867	-0.32892153
122	0xbe94841a	-0.29007035
123	0xbe642a33	-0.22281723
124	0x3ea42517	0.32059547
125	0x3e06c100	0.13159561
126	0xbe8465b0	-0.2585883
127	0xbd27e90d	-0.04099374
128	0xbea72ef5	-0.32653013
129	0xbe221efb	-0.1583213
130	0xbdb10aa3	-0.08644607
131	0xbea48134	-0.32129824
132	0xbec9a140	-0.39380836
133	0xbedef067	-0.43542787
134	0xbdcd55da	-0.100261405
135	0x3e93f722	0.28899485
136	0xbeca253f	-0.39481542
137	0x3e9130f8	0.28357673
138	0x3eb638a9	0.35590103
139	0x3e5939a1	0.2121339
140	0xbccb08b7	-0.024784429
141	0x3e4eee64	0.20208126
142	0xbeb9c8de	-0.36286062
143	0xbc0ed798	-0.008718394
144	0xbdcba080	-0.09942722
145	0x3cc59156	0.024117153
146	0x3e5ffa30	0.21872783

transformer_encoder.layers.0.self_attn.in_proj_bias f4 [21]
0	0xbb6d7003	-0.0036230094
1	0xbb9604c2	-0.004578204
2	0x3b4787eb	0.0030446004
3	0xbb8fb708	-0.0043858327
4	0x3b7660a2	0.0037594219
5	0x3a656ec8	0.00087521644
6	0xbbbe9879	-0.005816516
7	0x3712bdeb	8.746497e-06
8	0x37129b62	8.738456e-06
9	0x37636bfb	1.35553955e-05
10	0xb69bcf53	-4.6434957e-06
11	0x372743d6	9.96977e-06
12	0xb6191580	-2.2811291e-06
13	0x378e8fcb	1.6994678e-05
14	0x3b0fd392	0.0021946174
15	0xbae085fe	-0.0017129777
16	0xba92395f	-0.0011156014
17	0xbb0ef74d	-0.0021814883
18	0xba975b18	-0.0011547534
19	0xbb0c37aa	-0.0021395483
20	0xba2b3e45	-0.0006532411

transformer_encoder.layers.0.self_attn.out_proj.weight f4 [7, 7]
0	0xbe830006	-0.25585955
1	0xbe1a691d	-0.1507916
2	0x3e1b59e9	0.15171017
3	0x3e46f941	0.1943102
4	0x3e59b949	0.21262087
5	0xbd0180ef	-0.0316171
6	0xbeaf7bbe	-0.34274095
7	0xbea6d1f5	-0.3258206
8	0x3ddb9bad	0.10723052
9	0x3e897274	0.26845133
10	0x3dff9580	0.12479687
11	0xbe984a48	-0.29744172
12	0x3ec05524	0.37564957
13	0x3d9b5b96	0.07585828
14	0xbe3ddb00	-0.18540573
15	0xbd10881a	-0.035286047
16	0xbe2030bd	-0.15643592
17	0x3e741c7c	0.23838991
18	0xbe61df18	-0.2205776
19	0x3e4c1be3	0.19932513
20	0x3d5c08ea	0.05371944
21	0x3e9961a2	0.299573
22	0xbe9d0396	-0.30666798
23	0x3d592c37	0.053020682
24	0xbde44caa	-0.11147435
25	0xbe8ffbcc	-0.28121793
26	0xbe15a814	-0.14614898
27	0xbd0056a0	-0.031332612
28	0x3eb982e8	0.36232686
29	0x3ea7a8e1	0.32746032
30	0xbcdbe00b	-0.02684023
31	0xbe410fa9	-0.1885363
32	0xbca3b818	-0.019985244
33	0x3e8a7bc4	0.2704755
34	0x3d4511ce	0.048112683
35	0xbd61eba5	-0.05515637
36	0x3d23b42e	0.039966755
37	0xbaba122a	-0.0014196087
38	0x3d1b85f2	0.037969537
39	0xbea8b951	-0.32953885
40	0xbd30624c	-0.043062493
41	0x3a387ce8	0.00070376555
42	0x3e9204c3	0.28519258
43	0xbcaa447c	-0.020784609
44	0x3e3516dd	0.17684503
45	0xbec0cc7a	-0.37656003
46	0x3e45ce25	0.19316919
47	0xbdc834b6	-0.09775679
48	0xbda8caeb	-0.082418285

transformer_encoder.layers.0.self_attn.out_proj.bias f4 [7]
0	0xbaa4aefd	-0.0012564358
1	0xbb39e536	-0.002836538
2	0xbab41085	-0.0013737833
3	0x3adf856b	0.0017053311
4	0xbaa94560	-0.0012914352
5	0x3af20b88	0.0018466571
6	0x39f37d0f	0.00046441748

transformer_encoder.layers.0.linear1.weight f4 [512, 7]
0	0x3e9a4bf1	0.30136064
1	0x3e52e63e	0.20595643
2	0xbe439294	-0.19098884
3	0xbeaec0e3	-0.34131536
4	0x3e931540	0.2872715
5	0x3e0b1adb	0.13584463
6	0x3c080069	0.008300879
7	0xbeaa2696	-0.33232564
8	0x3e824999	0.25446776
9	0x3e9202a2	0.28517634
10	0xbe214a7d	-0.15751071
11	0xbc2cba2a	-0.010542432
12	0x3dd1d50b	0.10245713
13	0xbea3cb1e	-0.31990904
14	0x3e9e7291	0.30946782
15	0x3eaa2235	0.33229223
16	0x3e10b6aa	0.14132181
17	0x3e0437dc	0.12911934
18	0xbde315b1	-0.11088122
19	0x3d518e84	0.051161304
20	0xbd77ccc7	-0.060498025
21	0x3e79c298	0.24390638
22	0xbd501606	-0.050802253
23	0xbeb19cc8	-0.34689927
24	0xbe37b70b	-0.17940919
25	0x3d4441af	0.047914203
26	0x3e9fbc48	0.31198335
27	0xbe82fd21	-0.25583747
28	0xbe535b30	-0.20640254
29	0xbebc21ca	-0.3674453
30	0x3ea86407	0.32888815
31	0x3e38d93a	0.18051615
32	0x3dcbf4a9	0.099587746
33	0x3e282f5d	0.16424318
34	0xbd734f93	-0.05940206
35	0x3da9da4c	0.0829359
36	0x3e623bd9	0.22093143
37	0x3d7b7ad1	0.061396424
38	0x3eae099f	0.33991715
39	0xbe42fcbc	-0.19041723
40	0xbd841830	-0.06449926
41	0xbbff2275	-0.00778609
42	0xbeb2bc01	-0.3490906
43	0x3e9dc557	0.3081462
44	0xbebd5562	-0.36979204
45	0xbeaebf34	-0.3413025
46	0x3d975094	0.07388416
47	0xbe039753	-0.12850694
48	0xbe13f01f	-0.14447068
49	0xbd0b8e57	-0.034071293
50	0x3d755e86	0.059904598
51	0xbc6adc01	-0.01433468
52	0xbe954017	-0.2915046
53	0x3ec05408	0.3756411
54	0x3e51a253	0.20472078
55	0xbda7ed2b	-0.08199533
56	0xbd95f45a	-0.07321997
57	0x3e82f18b	0.25574908
58	0x3e4213b6	0.18952832
59	0xbce207f1	-0.027591677
60	0x3e4a31cd	0.1974556
61	0x3eb642a8	0.3559773
62	0xbea7bcc8	-0.32761216
63	0x3eb8df36	0.36107796
64	0x3da7794a	0.08177431
65	0x3cf93e04	0.03042508
66	0x3c30dd56	0.010794958
67	0x3e0c4574	0.1369837
68	0x3eb96321	0.36208442
69	0x3ebd5fd4	0.36987174
70	0xbea81687	-0.32829687
71	0xbd9881fb	-0.07446667
72	0x3e84d2fe	0.25942224
73	0xbd311e5e	-0.04324185
74	0x3ea4bcf3	0.32175407
75	0x3decafab	0.115569435
76	0xbeb659bb	-0.35615334
77	0x3eae881b	0.34088215
78	0x3e37c39c	0.17945713
79	0xbd91d120	-0.071199656
80	0xbe8b29f2	-0.2718044
81	0xbe7e5eef	-0.24840902
82	0xbebc0996	-0.36726063
83	0xbae9e7a6	-0.0017845526
84	0x3d13a204	0.036043182
85	0x3d610fb1	0.054946605
86	0xbe91f596	-0.2850768
87	0xbe5b3271	-0.2140596
88	0xbe67a743	-0.22622399
89	0x3e3fca81	0.18729593
90	0x3e4f0006	0.20214853
91	0xbe8e6534	-0.27811587
92	0x3e1f863f	0.15578555
93	0x3c864c54	0.016393818
94	0xbeb0910a	-0.34485656
95	0xbd5b276d	-0.053504396
96	0x3ebcc625	0.36869922
97	0x3dbd5dfd	0.092464425
98	0xbab26d5c	-0.0013612914
99	0x3d4be5b6	0.049779616
100	0xbe4456b3	-0.19173698
101	0xbe830d65	-0.25596157
102	0x3c17de10	0.009269252
103	0xbc43ab76	-0.011942735
104	0xbe823582	-0.25431448
105	0xbdff7920	-0.12474275
106	0x3eb3ed1f	0.35141847
107	0x3eacc5b2	0.3374458
108	0x3e73e35d	0.23817201
109	0x3ebc0418	0.36721873
110	0x3e67a3a7	0.22621022
111	0x3df565c9	0.119823046
112	0x3d87679c	0.06611559
113	0xbde01e08	-0.10943228
114	0x3e87ceb4	0.2652489
115	0x3eb4632f	0.3523192
116	0x3eb99ac5	0.36250892
117	0x3e0116ed	0.12606402
118	0x3e4885e8	0.19582331
119	0x3e5d120e	0.21588919
120	0xbe61a36f	-0.22035001
121	0xbd38b0e3	-0.045090567
122	0xbeb9676a	-0.3621171
123	0x3e5e922a	0.21735445
124	0x3e7b199a	0.24521485
125	0x3d05e79e	0.03269159
126	0xbe1ac6c9	-0.15114893
127	0x3e641e54	0.22277194
128	0x3e8d80be	0.27637285
129	0xbe408696	-0.1880134
130	0xbeb47403	-0.3524476
131	0x3df0334f	0.11728536
132	0x3c5fd9b0	0.013662741
133	0x3e70739e	0.23481604
134	0xbd8d624e	-0.06903516
135	0x3ebe3650	0.37150812
136	0x3db95f10	0.09051335
137	0xbebebf57	-0.37255356
138	0xbe45fb5b	-0.19334166
139	0x3e0b1e00	0.13585663
140	0x3eb9d7e5	0.36297527
141	0xbe902f1b	-0.2816094
142	0xbdf5e33d	-0.12006233
143	0xbe2d829b	-0.16944353
144	0x3e6a7e86	0.22899827
145	0xbebbb56f	-0.3666186
146	0xbdb0558f	-0.08610069
147	0xbe0219d6	-0.12705168
148	0x3d425597	0.047444906
149	0x3cdfacfc	0.027304165
150	0xbde02d08	-0.10946089
151	0xbe0b276d	-0.13589258
152	0xbd219696	-0.03945025
153	0x3e275786	0.16341981
154	0xbeba044a	-0.36331397
155	0xbd64cfc3	-0.0558622
156	0xbe717117	-0.23578297
157	0xbaaec201	-0.0013332964
158	0xbd8a544e	-0.06754361
159	0x3cd08533	0.02545414
160	0x3d7cbbcc	0.061702535
161	0xbdd32461	-0.10309673
162	0x3dc2bce8	0.09508687
163	0xbeb14faf	-0.34631106
164	0xbe8b7597	-0.2723815
165	0xbebbecbf	-0.3670406
166	0xbe964ad8	-0.29353976
167	0x3e12b502	0.14326862
168	0x3e598f6e	0.2124612
169	0xbe8d8a0e	-0.2764439
170	0x3e40cbc1	0.18827726
171	0x3dfb50c1	0.12271262
172	0x3cc503df	0.024049697
173	0x3e1849a5	0.14871843
174	0xbe0f217e	-0.1397762
175	0xbe5765de	-0.21034953
176	0xbdf06baf	-0.11739289
177	0xbe9aa28b	-0.30202135
178	0x3dc7645d	0.0973594
179	0xbec10e81	-0.37706378
180	0xbe15148c	-0.1455862
181	0x3e4e62b1	0.20154835
182	0x3e130d8d	0.14360638
183	0x3e51c6b7	0.2048596
184	0xbd73737e	-0.059436314
185	0xbc705b8b	-0.014670263
186	0x3e0088f1	0.12552239
187	0xbe215e47	-0.1575862
188	0x3ead836c	0.3388933
189	0x3e6a090f	0.22855018
190	0xbea1b9bb	-0.31587014
191	0xbd9be5ae	-0.07612167
192	0xbeb4220e	-0.35182232
193	0xbd2e4105	-0.042542476
194	0xbe7c0598	-0.24611509
195	0xbe7fdc7d	-0.24986453
196	0xbe2c53e9	-0.16828884
197	0x3e5f99fc	0.21836084
198	0xbe88a2cb	-0.266867
199	0xbeac3731	-0.33635858
200	0x3e941887	0.28924963
201	0x3de9e8b7	0.1142134
202	0x3da881f2	0.0822791
203	0x3e7d069b	0.24709551
204	0x3eaf8313	0.3427969
205	0x3e7f31ff	0.24921416
206	0x3e36dd83	0.17857938
207	0x3d744ec7	0.05964544
208	0xbea6fea0	-0.32616138
209	0xbebb6520	-0.3660059
210	0xbe36f5e6	-0.1786724
211	0x3e8e4d0b	0.27793154
212	0xbe8cd2fa	-0.27504712
213	0x3dc72049	0.09722955
214	0xbe4be6e7	-0.19912301
215	0x3cad132d	0.021127308
216	0x3e414fa5	0.18878038
217	0xbe37e2fe	-0.17957684
218	0xbda980f7	-0.08276551
219	0xbea244c5	-0.31693092
220	0xbe0e87c4	-0.13918978
221	0xbde91120	-0.113802195
222	0x3e8c0588	0.2734797
223	0xbc7cf756	-0.015439829
224	0x3daf7f39	0.08569188
225	0xbe936c24	-0.28793442
226	0x3e42ae3f	0.19011782
227	0xbea5679f	-0.3230562
228	0x3d876436	0.066109106
229	0x3eacf9ce	0.33784336
230	0xbeab94b3	-0.33511886
231	0xbda071ea	-0.078342274
232	0x3e80d628	0.25163388
233	0xbea2151f	-0.3165674
234	0x3e8c9a23	0.27461347
235	0xbe833072	-0.25622898
236	0x3e76bfc4	0.2409659
237	0x3c8390d2	0.016060267
238	0xbe8c1b24	-0.27364457
239	0x3e98db23	0.29854688
240	0xbe7bfcb8	-0.24608123
241	0x3dbd18df	0.092332594
242	0xbdde0d7b	-0.10842415
243	0xbebebf6f	-0.37255427
244	0x3e102d04	0.14079672
245	0xbe0b2478	-0.1358813
246	0x3d32c1ef	0.04364198
247	0xbe3985a1	-0.18117382
248	0x3e70f2d8	0.23530138
249	0x3ebcb9cf	0.3686051
250	0xbd1c1163	-0.03810252
251	0xbdcaa568	-0.0989483
252	0x3ec0e9ff	0.37678525
253	0x3e1f8c91	0.15580966
254	0xbe458c20	-0.19291735
255	0x3da9054c	0.082529634

transformer_encoder.layers.0.linear1.bias f4 [512]
0	0x3ea3a867	0.31964418
1	0x3e92b379	0.28652552
2	0x3dd462ad	0.103703834
3	0x3e4d0b3c	0.20023817
4	0xbe347779	-0.176237
5	0x3eb579d5	0.35444513
6	0x3eb83667	0.35979006
7	0x3e6348cd	0.2219574
8	0x3e9ec31c	0.31008232
9	0xbeb60305	-0.3554918
10	0x3e1fece1	0.15617706
11	0xbe943b72	-0.28951603
12	0xbe8a7328	-0.27040982
13	0x3d67d25c	0.0565971
14	0xbc138dfd	-0.009006021
15	0x3e57b5cb	0.21065442
16	0x3d5cbd97	0.053891744
17	0x3e6417be	0.22274682
18	0x3bd8a4f0	0.006611459
19	0x3ebb7bfa	0.36618024
20	0x3eaba536	0.33524483
21	0x3d6b4e19	0.057447527
22	0x3e1b33f2	0.15156534
23	0x3e308e18	0.17241704
24	0x3e78e8d7	0.24307571
25	0xbe5a343b	-0.21308987
26	0xbeb8a5ed	-0.3606409
27	0xbd904831	-0.070450194
28	0x3b7b2caf	0.0038326194
29	0x3de5e326	0.11224966
30	0x3e215e67	0.15758668
31	0xbe92ad81	-0.28647998
32	0xbead4488	-0.33841348
33	0x3e8ad3de	0.27114767
34	0xbe957d93	-0.29197368
35	0xbe06e5e6	-0.13173637
36	0xbe7fcbe5	-0.24980123
37	0xbd128e56	-0.035780273
38	0x3dab5347	0.08365493
39	0xbd3519c1	-0.044214014
40	0x3d767600	0.060171127
41	0x3e334457	0.17506538
42	0x3dcdd7dd	0.10050938
43	0xbe82ac01	-0.25521854
44	0xbdda767a	-0.10667129
45	0x3e5c6196	0.21521601
46	0x3eb17e41	0.34666637
47	0x3dbe346b	0.09287342
48	0x3e3a8cbb	0.18217747
49	0x3e706c28	0.23478758
50	0xbeb4c8c4	-0.35309422
51	0xbe997d46	-0.2997839
52	0xbe88bed4	-0.2670809
53	0x3e4f4533	0.20241241
54	0x3cca901e	0.024726924
55	0x3eae3e6d	0.34032002
56	0x3d9d4cb1	0.07680643
57	0xbe667197	-0.22504269
58	0xbe295bb8	-0.16538894
59	0xbe70d1fe	-0.23517606
60	0x3e952d13	0.2913595
61	0xbea7e66f	-0.32792994
62	0xbdd6bb50	-0.10484946
63	0xbeb6b8f8	-0.35687995
64	0xbd68d7ab	-0.056846302
65	0x3dbdcbe8	0.09267408
66	0xbbcf8619	-0.0063331244
67	0xbe419007	-0.18902598
68	0xbe80832a	-0.2510007
69	0x3db337b7	0.08750861
70	0x3e9e461b	0.3091286
71	0x3ea4e4ed	0.32205907
72	0xbeb63f74	-0.35595286
73	0x3eb2dfb0	0.34936285
74	0x3cfd7852	0.030941162
75	0xbe3cbee3	-0.18432193
76	0xbd12b632	-0.035818286
77	0xbce0c637	-0.027438266
78	0x3eb4c591	0.3530698
79	0xbbf12615	-0.007359276
80	0x3deaf23b	0.11471983
81	0x3da52dee	0.08065401
82	0xbe3072c2	-0.17231277
83	0x3e31c185	0.17358978
84	0xbe04bf3d	-0.12963577
85	0x3e9e1ed0	0.30882883
86	0x3deedf41	0.11663676
87	0xbeb18c12	-0.34677178
88	0xbe9e6586	-0.3093683
89	0x3eb99c31	0.36251977
90	0xbdd6e57c	-0.104929894
91	0xbcbe06b5	-0.023196558
92	0xbea7d3ea	-0.32778865
93	0x3ebe9ab7	0.37227413
94	0x3ec03fb1	0.37548593
95	0xbe9da109	-0.30786923
96	0x3c0be632	0.00853877
97	0x3c282dd0	0.010264829
98	0x3dfe0bf5	0.124046244
99	0xbe5febe5	-0.2186733
100	0x3dce8836	0.10084574
101	0xbe9f4c82	-0.31113058
102	0x3eb38ff8	0.35070777
103	0xbdf73320	-0.12070298
104	0xbe91d88b	-0.28485522
105	0x3e6b65d8	0.22988069
106	0xbe61a3df	-0.22035168
107	0x3dc31669	0.09525759
108	0xbd990ea4	-0.074734956
109	0x3e3f4779	0.18679608
110	0xbb921338	-0.0044578575
111	0x3daac00d	0.08337412
112	0xbe32c81d	-0.1745915
113	0x3d6d07fc	0.057868943
114	0xbe7aee04	-0.24504858
115	0x3e76718f	0.24066757
116	0xbec0b128	-0.3763516
117	0x3e22d6a9	0.15902199
118	0xbdd90753	-0.105971
119	0x3e5d4d45	0.21611507
120	0xbcec7d87	-0.02886845
121	0xbdd4c808	-0.103897154
122	0xbe896a2c	-0.26838815
123	0xbd1465cf	-0.036229905
124	0x3e96a7df	0.2942495
125	0xbe8c827b	-0.274433
126	0x3e2ddd92	0.16979054
127	0xbec1c8f4	-0.37848628
128	0xbdcbe664	-0.09956053
129	0xbdc7aba6	-0.09749536
130	0x3ea7da2b	0.32783636
131	0x3ccafa19	0.024777459
132	0xbe9d4c9e	-0.30722517
133	0x3e949759	0.2902172
134	0x3e082e98	0.13299024
135	0x3e48589e	0.19565055
136	0x3cbe5c82	0.02323747
137	0x3ebb0f66	0.36535186
138	0x3e8839d7	0.26606628
139	0xbdcd9844	-0.10038808
140	0x3d648315	0.055789072
141	0x3e3712ed	0.17878313
142	0x3db0aa32	0.08626212
143	0x3e8606cf	0.2617707
144	0xbd9229d2	-0.07136883
145	0xbe342fcb	-0.17596357
146	0x3e230584	0.15920073
147	0x3e52dda1	0.20592357
148	0xbe4cdd31	-0.20006253
149	0xbe747002	-0.23870853
150	0xbe103442	-0.14082435
151	0x3e2f3254	0.17109042
152	0xbe5b271b	-0.21401636
153	0xbe94553c	-0.2897128
154	0xbe09a509	-0.13441862
155	0xbe0efa23	-0.13962607
156	0x3eb31e51	0.34984067
157	0xbe96b2c0	-0.2943325
158	0xbea04a28	-0.31306577
159	0x3e6a761e	0.2289662
160	0x3ce09e98	0.027419373
161	0xbdaef7dc	-0.08543369
162	0x3d0b3498	0.033985704
163	0x3e9658a0	0.2936449
164	0xbe111e85	-0.14171799
165	0xbeae8d3d	-0.3409213
166	0x3e8555fc	0.26042163
167	0x3d6b04f5	0.057377774
168	0xbe821464	-0.25406182
169	0xbe60037d	-0.2187633
170	0xbe871624	-0.2638408
171	0xbdf905a8	-0.12159282
172	0x3e16fa46	0.14743909
173	0x3ddc3f96	0.107543156
174	0xbe8d0295	-0.27541032
175	0x3e597fed	0.21240206
176	0x3d1492dd	0.036272872
177	0xbe827042	-0.2547627
178	0xbe51f3f5	-0.20503218
179	0xbe91315e	-0.28357977
180	0x3e514faf	0.20440553
181	0x3ebd176c	0.36931932
182	0xbddb2667	-0.10700684
183	0x3ebc8803	0.3682252
184	0xbe454c4e	-0.19267389
185	0x3e092421	0.13392688
186	0x3dafb90d	0.085802175
187	0x3d948166	0.07251243
188	0x3d02be69	0.03191987
189	0x3e9f6e7e	0.31138986
190	0x3d80cd9d	0.062892176
191	0xbea331a1	-0.318738
192	0x3e5e843f	0.21730135
193	0xbd7975e0	-0.06090343
194	0xbd6c0dcd	-0.05763035
195	0x3e5775cf	0.21041034
196	0xbe501bd9	-0.20323123
197	0x3e0b4c75	0.13603385
198	0xbe5948f4	-0.21219236
199	0xbdd0a797	-0.10188215
200	0x3e6a09b0	0.22855258
201	0x3e10cba8	0.14140189
202	0xbde8f4c2	-0.11374809
203	0x3e87d87b	0.2653235
204	0x3ea6b180	0.32557297
205	0x3e1c131f	0.15241669
206	0x3eb6580c	0.3561405
207	0x3dc39e62	0.095516935
208	0x3dbaf15c	0.09128067
209	0xbeb4d3ad	-0.35317746
210	0xbe9de8cf	-0.3084168
211	0x3d94f5ec	0.072734684
212	0x3c92a2b7	0.017899854
213	0x3c1afed1	0.009460167
214	0xbe0612d7	-0.13093124
215	0xbe16511e	-0.14679381
216	0xbe4d8f20	-0.20074129
217	0x3ea7d0d1	0.32776502
218	0x3e93c2d2	0.28859574
219	0x3e863947	0.26215574
220	0x3d1217bf	0.035667177
221	0x3e8cb945	0.274851
222	0xbec0ffe5	-0.37695232
223	0xbe82ca42	-0.25544935
224	0xbeb8497c	-0.35993564
225	0xbc01705b	-0.007900323
226	0x3e8d6fd6	0.27624387
227	0x3d55a291	0.05215699
228	0x3e70496f	0.23465513
229	0xbe8eede1	-0.27915862
230	0x3e3f7067	0.18695222
231	0xbe60ce5e	-0.21953723
232	0x3eb153f0	0.34634352
233	0xbe6b8b13	-0.23002271
234	0xbe7e7bb2	-0.24851874
235	0xbda4457a	-0.08021064
236	0xbd7a779f	-0.061149236
237	0x3d9422ff	0.072332375
238	0x3b38d6ea	0.002820427
239	0x3eb78272	0.3584171
240	0xbdf91809	-0.121627875
241	0xbe236652	-0.15957001
242	0x3e96200f	0.29321334
243	0x3eb1c697	0.34721825
244	0x3e12e5f1	0.14345528
245	0xbe9f06c8	-0.3105986
246	0x3df5d9fe	0.12004469
247	0x3e83fefa	0.2578047
248	0x3d20a2d9	0.039217804
249	0x3d5924ed	0.05301373
250	0xbe0d5509	-0.1380197
251	0x3e1f1de0	0.1553874
252	0xbe8bb65d	-0.2728757
253	0x3e98cf73	0.2984577
254	0xbeac6167	-0.33668062
255	0x3e003b7f	0.12522696

transformer_encoder.layers.0.linear2.weight f4 [7, 512]
0	0x3cea9a5d	0.02863806
1	0x3d2d0edb	0.042250495
2	0xbd1d80d8	-0.038452953
3	0x3ca9291d	0.020649487
4	0x3b345f53	0.0027522638
5	0xbce7fd7b	-0.028319111
6	0x3c07b959	0.008283936
7	0xbd173ba1	-0.0369221
8	0xbd08db1b	-0.03341208
9	0xbcb5859d	-0.022158438
10	0x3d22be50	0.039732277
11	0x3c31a892	0.010843413
12	0xbbedb576	-0.007254298
13	0x3cae99e1	0.02131361
14	0xbc9663ee	-0.018358197
15	0x3c963e38	0.018340215
16	0x3cf7b26c	0.030236445
17	0xbcdba99c	-0.026814274
18	0x3d2c804e	0.04211455
19	0xbd25fe47	-0.0405257
20	0x3d2f6c66	0.042827986
21	0xbd1b2f56	-0.03788694
22	0x3d434542	0.04767347
23	0xbc0f4427	-0.008744276
24	0xbcec2967	-0.028828336
25	0x3c35f537	0.011105827
26	0x3bd6d2ff	0.0065559144
27	0xbbf508fd	-0.007477878
28	0x3cf4d30f	0.029885797
29	0x3d230ac2	0.03980518
30	0x3d36ca6a	0.04462663
31	0x3b364e96	0.0027817837
32	0x3d0c2025	0.034210343
33	0xbc7ac181	-0.015304924
34	0x3a400197	0.00073244557
35	0xbd130c0f	-0.03590017
36	0x3cda0c1b	0.0266171
37	0xbd00ed2b	-0.03147618
38	0x3ba4efa7	0.0050334516
39	0xbce61cdf	-0.028089939
40	0xbd08d266	-0.033403777
41	0x3d00d450	0.031452477
42	0x3c5ba3da	0.0134057645
43	0x3d08f03e	0.033432238
44	0xbd2c4fe3	-0.042068373
45	0xbb777503	-0.0037758953
46	0xbb71d028	-0.0036897752
47	0xbd0736ce	-0.03301125
48	0x3c432422	0.01191047
49	0x3cab318a	0.020897646
50	0xbd04a6c7	-0.032385614
51	0xbc32ba43	-0.010908666
52	0xbc113742	-0.008863272
53	0x3d02b64a	0.031912126
54	0xbc9434e8	-0.018091634
55	0xbb3274c9	-0.0027230254
56	0x3d26fcfb	0.040768605
57	0x3c66a1e2	0.014076682
58	0x3ca31304	0.019906528
59	0xbd1723ff	-0.036899563
60	0xbc30fa89	-0.01080192
61	0x3d03bd6a	0.03216306
62	0x3d229843	0.03969599
63	0x3c3ac2d5	0.011398991
64	0x3d2b41ea	0.041810907
65	0xbccb4e0b	-0.024817487
66	0xbc6292a8	-0.013828911
67	0x3ca79223	0.020455426
68	0x3c805150	0.015663773
69	0x3ce90232	0.02844343
70	0xbc68d4b5	-0.01421087
71	0x3d341743	0.043967497
72	0x3c8f2b2c	0.01747664
73	0xbc73595a	-0.014852846
74	0x3c707960	0.014677376
75	0xbb599a81	-0.0033203664
76	0xbcd92e51	-0.026511343
77	0x3c30c807	0.010789878
78	0xbc0a4db9	-0.008441382
79	0x3c3122fd	0.0108115645
80	0x3d2c4646	0.042059205
81	0x3cdc331d	0.026879841
82	0xbd0185f1	-0.031621877
83	0xbb95b116	-0.0045682294
84	0xbc7dd2a9	-0.01549212
85	0xbcbc262f	-0.022967426
86	0x3d263102	0.04057408
87	0xbc63cbc7	-0.013903565
88	0xbc0c13d2	-0.008549647
89	0xbb93deb2	-0.0045126313
90	0xbbe4cbd8	-0.006982308
91	0x3cd9a372	0.026567195
92	0xbcb1e1ec	-0.021714173
93	0x3d13034a	0.03589181
94	0x3cd8fd1c	0.02648788
95	0x3c4ec036	0.012619069
96	0x3c725a73	0.014792073
97	0xbd1aacf2	-0.03776259
98	0xbc77251b	-0.01508453
99	0xbcc9650a	-0.024584312
100	0xbc80a8b4	-0.015705444
101	0x3cf179f4	0.029477097
102	0x3c0ccef3	0.008594262
103	0xbcf031f8	-0.029320702
104	0x3d0c40b1	0.034241382
105	0xbc961164	-0.01831884
106	0x3d084aa5	0.03327431
107	0xbb5cb1e6	-0.0033675372
108	0x3d18fd32	0.03735084
109	0xbcba5c0d	-0.022748971
110	0x3b8cd620	0.0042979866
111	0xbb84d323	-0.00405349
112	0xbcc0cb09	-0.023534315
113	0xbc4e900f	-0.012607588
114	0xbd0e0ab8	-0.03467819
115	0xbcc55023	-0.024086064
116	0x3b6deb38	0.0036303531
117	0x3d26ffbb	0.040771227
118	0xbb803b35	-0.003913308
119	0x3ca8d5da	0.020609785
120	0xbc64960e	-0.013951791
121	0x3d1c516d	0.03816359
122	0x3c50dd70	0.012748107
123	0x3ac636be	0.0015122516
124	0x3c2eb2b5	0.010662724
125	0xbbc71b22	-0.0060762325
126	0x3cf5c537	0.030001266
127	0xbd2250be	-0.039627783
128	0x3ce36c2a	0.027761538
129	0xbc446967	-0.0119880205
130	0xbc80e61e	-0.015734728
131	0xbc930b7b	-0.01794981
132	0x3cdab503	0.026697641
133	0xbbed3cb8	-0.0072399043
134	0x3cb2ab84	0.0218103
135	0x3d21d85e	0.039512984
136	0x3d320490	0.043461382
137	0x3cbaa1af	0.022782175
138	0x3c095c70	0.008383855
139	0xbca67dc3	-0.02032364
140	0x3b98a4b2	0.004658305
141	0xbcdc1473	-0.02686522
142	0xbd0e6123	-0.034760606
143	0x3ccf1566	0.025278758
144	0xbd2f0393	-0.042728018
145	0xbce3dea2	-0.02781612
146	0x3cb8939e	0.022531327
147	0x3cdc701c	0.026908927
148	0x3b81c1a6	0.0039598523
149	0xbc8c5dda	-0.017134596
150	0xbd242d76	-0.040082417
151	0xbbf4d5ec	-0.0074717905
152	0xbc7ac636	-0.015306046
153	0xbcef9f2c	-0.029250704
154	0xbbfb4931	-0.007668637
155	0x3d3578fa	0.044304825
156	0xbc865242	-0.016396645
157	0xbcac6e24	-0.021048613
158	0xbcbcfdcb	-0.023070237
159	0x3c8bcb11	0.017064603
160	0x3ce51a40	0.027966619
161	0x3caa6539	0.02080022
162	0x3cdb6bdc	0.02678483
163	0xbac13fec	-0.0014743782
164	0x3d35e2fd	0.044405926
165	0xbd1fc5c0	-0.03900695
166	0x3ca88cff	0.020575045
167	0x3d01d9ad	0.031701732
168	0xbb404609	-0.002933862
169	0x3c0c1574	0.008550037
170	0x3c405541	0.011739076
171	0xbd2e68fe	-0.042580597
172	0xbd0b1c39	-0.033962462
173	0x3c573121	0.013134272
174	0x3cbe4f8d	0.023231292
175	0xbcbdbd8e	-0.023161676
176	0x3cec65a3	0.028857058
177	0xbd28f403	-0.041248333
178	0xbce3922c	-0.027779661
179	0x3d09ba14	0.033624724
180	0xbc1dc648	-0.009629793
181	0xbc3f4c9a	-0.011675978
182	0x3c1eef4e	0.009700609
183	0xba9b7616	-0.0011860754
184	0xbd1bb42f	-0.038013633
185	0xbba9d24f	-0.0051825414
186	0x3d0a024f	0.033693608
187	0x3b337776	0.0027384437
188	0x3d38b082	0.045090206
189	0xbd1a44ae	-0.037663154
190	0x3b3f3354	0.002917488
191	0xbb710e6f	-0.0036782285
192	0x3c8be03d	0.017074699
193	0xbd284e8e	-0.04109054
194	0xbce62d9c	-0.02809792
195	0xbcecf09b	-0.028923323
196	0x3c84fa03	0.016232496
197	0x3ceaa802	0.028644565
198	0x3bcf2b77	0.00632232
199	0x3bc4bd39	0.0060040024
200	0xbcd9ca11	-0.02658561
201	0x3cf27d84	0.029600866
202	0x3cd3e5b1	0.025866361
203	0xbd180921	-0.03711808
204	0x3ce00e19	0.027350472
205	0xbd0d26db	-0.034460884
206	0xbceff6f4	-0.029292561
207	0xbd11f463	-0.035633456
208	0xbcf30e4c	-0.029669903
209	0x3d2418ae	0.0400626
210	0x3c60de24	0.013724837
211	0xbcd765cf	-0.026293663
212	0x3d297c1f	0.041378137
213	0x3cd1dc76	0.02561782
214	0x3d247cae	0.040157966
215	0xbc8642d4	-0.016389288
216	0xbd19d0ed	-0.037552763
217	0x3d2b099f	0.041757222
218	0x3d23bfaa	0.039977707
219	0x3cf12c48	0.02944006
220	0xbcba2e7c	-0.022727244
221	0xbb14a14d	-0.002267915
222	0xbcbe337b	-0.023217907
223	0xbc0ff78d	-0.008787048
224	0x3c550031	0.013000534
225	0xbcadfcf8	-0.021238789
226	0xbb9b6564	-0.0047423113
227	0x3d23fd6f	0.040036615
228	0xbd0dd5ea	-0.034627832
229	0xbd31a009	-0.043365512
230	0xbc445653	-0.011983472
231	0x3cf66a9b	0.03008013
232	0x3c2aa03a	0.010414178
233	0x3cff66c8	0.03117694
234	0x3cf14ae0	0.029454648
235	0xbc48471b	-0.012223984
236	0xbc3b4a50	-0.011431292
237	0xbbf2ab0d	-0.0074056447
238	0x3b4d4241	0.0031320008
239	0x3b7ae341	0.0038282427
240	0x3ceaaacc	0.028645895
241	0x3d2c9ece	0.042143635
242	0xbc46d4db	-0.01213571
243	0x3d1132c5	0.03544881
244	0x3d1bcc9a	0.03803692
245	0x3d1c26b4	0.038122848
246	0x3be27fdf	0.006912216
247	0xbcd3241b	-0.025774052
248	0x3a1a6d8e	0.0005890959
249	0x3bf2df94	0.0074119065
250	0x3c88ca13	0.016697919
251	0xbcbd8b76	-0.02313779
252	0x3bb36ecb	0.005475854
253	0x3b029559	0.0019925444
254	0xbc9766a9	-0.01848157
255	0x3d2c42e1	0.04205597

transformer_encoder.layers.0.linear2.bias f4 [7]
0	0x3ba3175a	0.004977149
1	0x3b9bf2fe	0.0047591915
2	0xbd0203bc	-0.031741843
3	0xbd1ac575	-0.037785966
4	0x3cafeb71	0.021474572
5	0x3c67efed	0.014156324
6	0x3b7b9848	0.0038390327

transformer_encoder.layers.0.norm1.weight f4 [7]
0	0x3f800892	1.0002615
1	0x3f8049da	1.0022538
2	0x3f7f0f52	0.9963275
3	0x3f8025ca	1.0011532
4	0x3f7f9a2f	0.9984464
5	0x3f7f9ab5	0.9984544
6	0x3f7fd26b	0.9993045

transformer_encoder.layers.0.norm1.bias f4 [7]
0	0x3ad8066f	0.001648141
1	0xbb7fe64a	-0.0039047175
2	0xba7f39ca	-0.0009736089
3	0x3b148f57	0.0022668445
4	0xba10a1b9	-0.00055172626
5	0xba3400a8	-0.0006866553
6	0x3b561840	0.0032668263

transformer_encoder.layers.0.norm2.weight f4 [7]
0	0x3f802223	1.0010418
1	0x3f8088a9	1.0041705
2	0x3f7ee728	0.99571466
3	0x3f80038c	1.0001082
4	0x3f7f87e4	0.9981673
5	0x3f7f92f1	0.9983359
6	0x3f7feafc	0.9996793

transformer_encoder.layers.0.norm2.bias f4 [7]
0	0x3aa57f1a	0.001262638
1	0xbb8f93c8	-0.0043816306
2	0xbada9027	-0.0016675041
3	0x3aded5b7	0.0017000948
4	0xbab935a8	-0.0014130371
5	0xba23c17a	-0.0006246787
6	0x3b384047	0.0028114484

transformer_encoder.layers.1.self_attn.in_proj_weight f4 [21, 7]
0	0xbb93fb06	-0.0045160083
1	0x3e271baa	0.16319147
2	0x3e81e14f	0.2536721
3	0xbd8a2438	-0.067451894
4	0x3e8e8c5f	0.2784147
5	0x3dde3d7d	0.10851572
6	0xbc1eb9b8	-0.0096878335
7	0xbeddcabb	-0.43318734
8	0xbd9dcfbd	-0.077056386
9	0x3e9849a2	0.29743677
10	0x3c95f071	0.018303128
11	0xbdacf1e0	-0.084445715
12	0x3ea5b996	0.32368153
13	0x3eb7bce3	0.35886297
14	0x3ece144e	0.40249866
15	0x3ebaef62	0.3651076
16	0x3e06848f	0.13136505
17	0xbe030a67	-0.12796937
18	0x3e475add	0.19468255
19	0x3e51d3d1	0.20490958
20	0x3eb0c0fe	0.3452224
21	0x3ec7683f	0.3894672
22	0xbe330072	-0.17480639
23	0x3e86db37	0.26339123
24	0xbd497144	-0.049180284
25	0xbe06d5f5	-0.13167556
26	0xbe2a2274	-0.16614705
27	0xbe6cf684	-0.23140913
28	0xbee2f75a	-0.4432934
29	0xbd460454	-0.04834397
30	0x3e2f81cb	0.17139356
31	0xbe7d68c2	-0.24746993
32	0x3ea5017e	0.322277
33	0x3e1ae951	0.15128066
34	0x3e8f8904	0.28034222
35	0x3d1342f9	0.035952542
36	0x3e3fe374	0.1873911
37	0xbeb37052	-0.3504663
38	0xbe448809	-0.19192518
39	0xbb011ab5	-0.0019699757
40	0xbe12b23c	-0.14325804
41	0x3de6e55f	0.11274218
42	0x3ea7f060	0.3280058
43	0xbe85adba	-0.26109105
44	0x3d87859c	0.06617281
45	0xbd54e95a	-0.051980354
46	0x3e0a1bb0	0.13487124
47	0x3ed08512	0.40726525
48	0x3ec8ff5e	0.3925733
49	0x3ec7ac9a	0.38998872
50	0xbe4a6403	-0.19764714
51	0x3ecacc91	0.39609197
52	0xbd1c698d	-0.0381866
53	0x3e8e135b	0.27749142
54	0x3eaa6a58	0.3328426
55	0xbeca3e6b	-0.39500746
56	0x3e05e6d3	0.13076334
57	0x3e9b7150	0.30359888
58	0xbc780a44	-0.015139166
59	0xbedc510c	-0.43030584
60	0xbddb86cd	-0.107190706
61	0xbde5172a	-0.11186059
62	0xbea18bd8	-0.31552005
63	0xbeb36e41	-0.35045055
64	0x3d488023	0.048950326
65	0x3ec2659e	0.37968153
66	0xbda40f28	-0.08010703
67	0xbe5b3819	-0.21408118
68	0x3e328e44	0.17437083
69	0x3e17b930	0.14816737
70	0xbd3cad5c	-0.046063766
71	0x3ed83d9a	0.42234498
72	0xbe182adc	-0.148601
73	0xbec3cf4a	-0.38244087
74	0xbea1cbad	-0.31600705
75	0x3e9a9800	0.30194092
76	0xbe76684c	-0.24063224
77	0xbd56bae5	-0.05242433
78	0xbe713b91	-0.23557879
79	0x3dffbeef	0.124875896
80	0x3eb9d42b	0.36294684
81	0x3e1fd8d3	0.15610056
82	0x3e967c9b	0.2939194
83	0x3e426db7	0.18987165
84	0x3e98c52f	0.2983794
85	0xbed3d8b1	-0.4137626
86	0xbeb6a1cb	-0.35670313
87	0xbe74d713	-0.2391017
88	0xbea184f3	-0.31546745
89	0x3ee35ab0	0.44405127
90	0xbe005400	-0.12532043
91	0x3e366eb8	0.17815673
92	0x3e58a058	0.21154916
93	0x3ed7f717	0.42180702
94	0xbed08717	-0.40728065
95	0x3ecf5305	0.40493026
96	0xbc9c99c8	-0.019116297
97	0xbeba1c2c	-0.36349618
98	0x3e95b26b	0.29237685
99	0xbed5f69c	-0.4178971
100	0x3ea2c7ea	0.31793147
101	0x3dfde43d	0.123970486
102	0x3e03831d	0.12842984
103	0x3ea746bd	0.32671157
104	0xbe154771	-0.14578034
105	0x3e86898e	0.2627682
106	0x3d87d715	0.066328205
107	0x3e01d257	0.12677895
108	0xbed85aae	-0.42256683
109	0xbe8d55f4	-0.2760464
110	0x3e227dfe	0.15868375
111	0xbed2e228	-0.4118817
112	0x3e9de81b	0.30841145
113	0x3e2bd3b6	0.1677998
114	0x3d6c9f34	0.057769015
115	0x3ec2e2a4	0.38063538
116	0xbed19721	-0.40935615
117	0x3c78229d	0.015144971
118	0x3e2c05fa	0.16799155
119	0x3ee5685a	0.44806176
120	0x3d3639b2	0.044488616
121	0xbea85810	-0.32879686
122	0xbe939858	-0.28827167
123	0xbe66d076	-0.22540459
124	0x3ea35b3a	0.31905538
125	0x3e053925	0.1301008
126	0xbe84a676	-0.2590825
127	0xbd2c0ce0	-0.042004466
128	0xbea632c7	-0.32460615
129	0xbe22732a	-0.15864244
130	0xbdb26eaa	-0.08712514
131	0xbea4bd6e	-0.32175773
132	0xbec90876	-0.39264268
133	0xbee089d3	-0.43855152
134	0xbdd015ce	-0.10160409
135	0x3e952933	0.29132995
136	0xbec9b053	-0.39392337
137	0x3e90ad0e	0.2825703
138	0x3eb5eb51	0.35531095
139	0x3e56e9b0	0.20987582
140	0xbcc4ddfe	-0.024031635
141	0x3e4ea300	0.20179367
142	0xbeba1c55	-0.3634974
143	0xbbe41acc	-0.0069612022
144	0xbdcec899	-0.10096855
145	0x3cbefb58	0.02331321
146	0x3e5cf55c	0.21577972

transformer_encoder.layers.1.self_attn.in_proj_bias f4 [21]
0	0x39859b4a	0.00025483436
1	0x372766f0	9.977943e-06
2	0x38d8c29d	0.00010335932
3	0x39786d1a	0.00023691767
4	0x38b02ff3	8.401265e-05
5	0xb9d0d0d1	-0.00039828432
6	0x39a117dc	0.0003072609
7	0x36d03f93	6.206284e-06
8	0x363c3e4c	2.8050445e-06
9	0xb678ccc0	-3.707406e-06
10	0x369f16e8	4.741236e-06
11	0x3742a6ae	1.1602109e-05
12	0xb6b41b70	-5.367612e-06
13	0x36739140	3.6294368e-06
14	0x3a545d06	0.000810102
15	0xba748597	-0.0009327768
16	0xbb507a26	-0.0031811087
17	0xb9f75357	-0.00047173604
18	0x3a90bea6	0.0011043146
19	0xbaaf45fd	-0.0013372299
20	0xbacc3a5a	-0.0015581355

transformer_encoder.layers.1.self_attn.out_proj.weight f4 [7, 7]
0	0xbe82265f	-0.254199
1	0xbe1b27d6	-0.15151915
2	0x3e18b76d	0.14913721
3	0x3e44fbe8	0.1923672
4	0x3e580fd8	0.21099794
5	0xbcf6d875	-0.030132512
6	0xbeb07495	-0.34463945
7	0xbeaadf7b	-0.33373627
8	0x3ddc0477	0.10743039
9	0x3e89e7d1	0.26934674
10	0x3dfcb519	0.12339229
11	0xbe931f48	-0.28734803
12	0x3ec0120d	0.37513772
13	0x3d932f2c	0.07186732
14	0xbe39e7c8	-0.18154824
15	0xbd132677	-0.035925355
16	0xbe1f4ef1	-0.15557458
17	0x3e735865	0.23764189
18	0xbe646024	-0.223023
19	0x3e4b87dd	0.19876046
20	0x3d595043	0.05305506
21	0x3e97b06d	0.2962679
22	0xbe9c7619	-0.3055885
23	0x3d50afce	0.05094891
24	0xbddf5b05	-0.109060325
25	0xbe8fc953	-0.28083286
26	0xbe147bb2	-0.14500311
27	0xbcec3640	-0.028834462
28	0x3eb99f5c	0.36254394
29	0x3ea7ec72	0.3279758
30	0xbce767e1	-0.028247776
31	0xbe417eeb	-0.18896072
32	0xbc9affed	-0.018920863
33	0x3e8af994	0.27143538
34	0x3d4004e6	0.04687967
35	0xbd6b06a6	-0.057379387
36	0x3d22b787	0.039725807
37	0x392f1c59	0.00016699861
38	0x3d1fca4d	0.03901129
39	0xbea8165d	-0.32829562
40	0xbd3300f6	-0.04370209
41	0x3b07648c	0.0020659296
42	0x3e952895	0.29132524
43	0xbc94fa26	-0.018185686
44	0x3e3415e2	0.17586473
45	0xbec15fa5	-0.37768283
46	0x3e40bd45	0.188222
47	0xbdc4514f	-0.09585821
48	0xbdada831	-0.084793456

transformer_encoder.layers.1.self_attn.out_proj.bias f4 [7]
0	0x39a1db47	0.00030871687
1	0xbb8fead1	-0.004392006
2	0x3a3e9b91	0.0007271106
3	0x3924fe42	0.00015734977
4	0xbac19a9f	-0.0014770812
5	0x38de7b46	0.000106087464
6	0x3a175532	0.0005772888

transformer_encoder.layers.1.linear1.weight f4 [512, 7]
0	0x3e97a9a1	0.29621604
1	0x3e51c226	0.20484218
2	0xbe3d5e0d	-0.18492909
3	0xbeb1af42	-0.34704024
4	0x3e94a2a2	0.2903033
5	0x3e111279	0.14167203
6	0x3b7e1e3d	0.0038775348
7	0xbeaa3ab6	-0.33247918
8	0x3e822062	0.2541533
9	0x3e923fb8	0.2856424
10	0xbe212c38	-0.15739524
11	0xbc4baa26	-0.012430703
12	0x3dd1432e	0.10217892
13	0xbea284a1	-0.31741813
14	0x3e9cd458	0.30630755
15	0x3eab6064	0.33471978
16	0x3e1314c6	0.14363393
17	0x3e00fbae	0.12596008
18	0xbddede40	-0.108822346
19	0x3d5b9b31	0.0536148
20	0xbd8052d8	-0.06265801
21	0x3e7bc2f3	0.24586086
22	0xbd582e02	-0.05277825
23	0xbeb2db9b	-0.3493317
24	0xbe352638	-0.1769036
25	0x3d3aef20	0.045638204
26	0x3e9e7a52	0.30952698
27	0xbe81f803	-0.2538453
28	0xbe538c5f	-0.20659016
29	0xbebbbab6	-0.36665887
30	0x3ea5a548	0.32352662
31	0x3e391dfe	0.18077847
32	0x3dcd2732	0.100172415
33	0x3e29aac6	0.16569051
34	0xbd77df65	-0.06051578
35	0x3dad98de	0.08476423
36	0x3e611534	0.21980745
37	0x3d7a70b7	0.06114265
38	0x3eae7e31	0.3408065
39	0xbe45a37a	-0.19300643
40	0xbd8550c7	-0.06509548
41	0xbbe8fec2	-0.0071104476
42	0xbeb368d8	-0.35040927
43	0x3ea2e0b5	0.31812063
44	0xbebbe467	-0.36697695
45	0xbeb0c08f	-0.3452191
46	0x3d9047f3	0.07044973
47	0xbdff2b1b	-0.124593936
48	0xbe1ae123	-0.15124945
49	0xbd0b1862	-0.0339588
50	0x3d70e897	0.058815565
51	0xbc695177	-0.014240614
52	0xbe955fea	-0.2917474
53	0x3ec032eb	0.37538847
54	0x3e51bde3	0.20482592
55	0xbda77e58	-0.08178395
56	0xbd977319	-0.07395
57	0x3e82d548	0.25553346
58	0x3e419740	0.18905354
59	0xbceb115d	-0.028694803
60	0x3e49cd3a	0.19707194
61	0x3eb6a030	0.35669088
62	0xbea765bb	-0.32694802
63	0x3eb88d8d	0.36045495
64	0x3da8c6d7	0.08241051
65	0x3cf7156f	0.030161588
66	0x3c262f19	0.010143065
67	0x3e0da91c	0.13834041
68	0x3eb9a522	0.362588
69	0x3ebd0f41	0.369257
70	0xbea7786b	-0.3270906
71	0xbd9b1c4a	-0.07573755
72	0x3e858c95	0.26083818
73	0xbd2cca5b	-0.04218517
74	0x3ea54f4a	0.32287055
75	0x3de8334e	0.113379106
76	0xbeb44e36	-0.3521592
77	0x3eaf39f6	0.34223908
78	0x3e35dcbc	0.17759985
79	0xbd932b30	-0.07185972
80	0xbe8a4f3f	-0.27013585
81	0xbe7fc323	-0.24976783
82	0xbebc4d8c	-0.36777914
83	0xba8b7b6a	-0.0010641639
84	0x3d1671b1	0.03672952
85	0x3d60e273	0.05490346
86	0xbe923151	-0.2855325
87	0xbe5a7cc8	-0.21336663
88	0xbe686b5e	-0.22697207
89	0x3e3f2136	0.18665013
90	0x3e505a84	0.20347029
91	0xbe8e6534	-0.27811587
92	0x3e1f863f	0.15578555
93	0x3c864c54	0.016393818
94	0xbeb0910a	-0.34485656
95	0xbd5b276d	-0.053504396
96	0x3ebcc625	0.36869922
97	0x3dbd5dfd	0.092464425
98	0xbb3fb472	-0.002925184
99	0x3d47d242	0.0487845
100	0xbe436008	-0.19079602
101	0xbe835dd4	-0.25657523
102	0x3c21f200	0.009884357
103	0xbc35e0b6	-0.011100939
104	0xbe825c43	-0.25461015
105	0xbdfdbf06	-0.123899505
106	0x3eb41162	0.35169512
107	0x3ead4546	0.33841914
108	0x3e72debe	0.23717782
109	0x3ebb5bfa	0.3659361
110	0x3e6745b4	0.22585183
111	0x3df7db9a	0.121024325
112	0x3d8a6009	0.067565985
113	0xbde0d5a5	-0.109782495
114	0x3e8497f0	0.2589717
115	0x3eb53f3d	0.3539981
116	0x3eb8cef6	0.360954
117	0x3e015340	0.12629414
118	0x3e4880df	0.1958041
119	0x3e5c87ce	0.2153618
120	0xbe626070	-0.221071
121	0xbd36e5c3	-0.04465271
122	0xbeb7644d	-0.3581871
123	0x3e5e76bd	0.21724983
124	0x3e7a3491	0.24434115
125	0x3d095dec	0.033536837
126	0xbe18beff	-0.14916609
127	0x3e636f04	0.22210318
128	0x3e8d5823	0.27606305
129	0xbe3eab38	-0.18620002
130	0xbeb56272	-0.3542667
131	0x3defd525	0.11710576
132	0x3c5d4d0d	0.01350714
133	0x3e713aab	0.23557536
134	0xbd8d6afd	-0.06905172
135	0x3ebee3de	0.37283224
136	0x3dbb9127	0.09158545
137	0xbebf29cd	-0.3733658
138	0xbe45b11f	-0.19305848
139	0x3e097709	0.13424315
140	0x3ebb629f	0.3659868
141	0xbe9121f3	-0.28346214
142	0xbdfbafca	-0.122893885
143	0xbe2b98d1	-0.16757514
144	0x3e65bab8	0.22434509
145	0xbebcb332	-0.36855465
146	0xbdac634f	-0.08417379
147	0xbe05b57d	-0.13057514
148	0x3d4c4d21	0.049878243
149	0x3cfe49c9	0.031041043
150	0xbde6d3c2	-0.11270858
151	0xbe09694e	-0.13419077
152	0xbd174f6d	-0.03694098
153	0x3e24c472	0.16090563
154	0xbeb703df	-0.3574514
155	0xbd745a9a	-0.059656717
156	0xbe71c0bf	-0.23608683
157	0x3b66f6ae	0.0035242247
158	0xbd94e8ed	-0.072709896
159	0x3ca4a51e	0.020098265
160	0x3d85370d	0.06504641
161	0xbdd1ac87	-0.10237985
162	0x3dc3a58b	0.09553059
163	0xbeb0c76e	-0.34527153
164	0xbe8bb289	-0.2728465
165	0xbebc9962	-0.36835772
166	0xbe968756	-0.29400128
167	0x3e12d587	0.14339267
168	0x3e5a0393	0.21290426
169	0xbe8d6ccd	-0.2762207
170	0x3e4288ea	0.18997541
171	0x3df9ff94	0.12206951
172	0x3cc0995c	0.023510627
173	0x3e17c957	0.14822899
174	0xbe0edd15	-0.13951524
175	0xbe576baa	-0.21037164
176	0xbdf35d47	-0.118830256
177	0xbe9a7442	-0.30166823
178	0x3dc8f63b	0.0981259
179	0xbec02ffd	-0.37536612
180	0xbe16ad15	-0.14714463
181	0x3e4f4f70	0.20245147
182	0x3e12c4fa	0.14332953
183	0x3e509fe7	0.20373498
184	0xbd6e7437	-0.0582163
185	0xbc63adaa	-0.013896385
186	0x3e00ad73	0.12566166
187	0xbe216d8b	-0.15764444
188	0x3eadb814	0.33929503
189	0x3e6a854c	0.22902411
190	0xbea1f433	-0.31631622
191	0xbda0b866	-0.07847671
192	0xbeb3e3bb	-0.35134682
193	0xbd2f5c29	-0.0428125
194	0xbe7caed8	-0.24676073
195	0xbe7dd099	-0.24786605
196	0xbe29cf25	-0.16582926
197	0x3e601ab1	0.21885182
198	0xbe88ddfe	-0.26731867
199	0xbeabff62	-0.3359328
200	0x3e94627a	0.28981382
201	0x3de8ea4a	0.11372812
202	0x3da97614	0.08274475
203	0x3e7cc8c1	0.24685957
204	0x3eb01b15	0.34395662
205	0x3e7f7971	0.2494867
206	0x3e3619de	0.17783305
207	0x3d777c1f	0.060421105
208	0xbea6b4bb	-0.3255976
209	0xbebbfe35	-0.36717382
210	0xbe373192	-0.17890003
211	0x3e8e15b7	0.27750942
212	0xbe8b9865	-0.27264705
213	0x3dc6e17a	0.09710975
214	0xbe4c2812	-0.1993716
215	0x3ca22b22	0.019795958
216	0x3e42d2be	0.19025704
217	0xbe37e2fe	-0.17957684
218	0xbda980f7	-0.08276551
219	0xbea244c5	-0.31693092
220	0xbe0e87c4	-0.13918978
221	0xbde91120	-0.113802195
222	0x3e8c0588	0.2734797
223	0xbc7cf756	-0.015439829
224	0x3daf7f39	0.08569188
225	0xbe936c24	-0.28793442
226	0x3e42ae3f	0.19011782
227	0xbea5679f	-0.3230562
228	0x3d876436	0.066109106
229	0x3eacf9ce	0.33784336
230	0xbeab94b3	-0.33511886
231	0xbda36933	-0.079790495
232	0x3e816361	0.25271133
233	0xbea1a580	-0.3157158
234	0x3e8bb10c	0.27283514
235	0xbe82375c	-0.2543286
236	0x3e78d4ef	0.24299978
237	0x3c6555f5	0.013997545
238	0xbe8ad385	-0.27114502
239	0x3e99b624	0.30021775
240	0xbe7fba17	-0.24973331
241	0x3dbf66ba	0.093457654
242	0xbde56b5c	-0.11202118
243	0xbebe4c27	-0.37167475
244	0x3e0ee3f4	0.13954145
245	0xbe0cd133	-0.13751678
246	0x3d3ca4b2	0.046055503
247	0xbe387630	-0.18013835
248	0x3e6f3638	0.23360527
249	0x3ebd4791	0.36968663
250	0xbd15822a	-0.036501087
251	0xbdd0518f	-0.10171806
252	0x3ec11b9f	0.37716386
253	0x3e1d79d0	0.15378499
254	0xbe45dce9	-0.19322552
255	0x3dab12d3	0.083532

transformer_encoder.layers.1.linear1.bias f4 [512]
0	0x3ea0a8fb	0.31378922
1	0x3e92c855	0.28668466
2	0x3dce51bd	0.10074184
3	0x3e4f7534	0.20259553
4	0xbe3516bd	-0.17684455
5	0x3eb5db0e	0.35518688
6	0x3eb61b11	0.35567525
7	0x3e632bb9	0.22184648
8	0x3e9e6005	0.30932632
9	0xbeb64fde	-0.3560781
10	0x3e219aec	0.15781754
11	0xbe93aed4	-0.2884432
12	0xbe8a1111	-0.26966146
13	0x3d67d25c	0.0565971
14	0xbc20d01a	-0.00981524
15	0x3e57ecdc	0.21086448
16	0x3d61560c	0.0550137
17	0x3e648392	0.22315815
18	0x3be49edf	0.0069769467
19	0x3ebb9740	0.36638832
20	0x3eaca428	0.3371899
21	0x3d5d7e67	0.054075625
22	0x3e20694d	0.15665169
23	0x3e302443	0.17201333
24	0x3e78b06c	0.2428605
25	0xbe594886	-0.21219072
26	0xbeb87c73	-0.36032447
27	0xbd8ee64e	-0.06977521
28	0x3b8d3bb9	0.004310098
29	0x3de367fc	0.11103818
30	0x3e21e055	0.15808232
31	0xbe92ad81	-0.28647998
32	0xbead4488	-0.33841348
33	0x3e89afbd	0.2689189
34	0xbe954b53	-0.2915903
35	0xbe08f561	-0.13374855
36	0xbe7f5bc5	-0.24937351
37	0xbd1568fc	-0.036477074
38	0x3da9ff3d	0.08300636
39	0xbd3e4c86	-0.046459697
40	0x3d6b5b0f	0.057459887
41	0x3e338a10	0.17533135
42	0x3dd4dabc	0.10393283
43	0xbe81542f	-0.2525954
44	0xbdd9102d	-0.105987884
45	0x3e5c46d3	0.21511392
46	0x3eb1b61c	0.3470925
47	0x3dbc2141	0.0918603
48	0x3e3e249f	0.18568657
49	0x3e706648	0.23476517
50	0xbeb3ae8e	-0.35094112
51	0xbe9910d4	-0.2989565
52	0xbe88bc83	-0.26706323
53	0x3e515896	0.20443949
54	0x3ccf11db	0.025277069
55	0x3eaf9034	0.34289706
56	0x3d9f23e4	0.077705175
57	0xbe67809b	-0.22607653
58	0xbe291b9e	-0.16514441
59	0xbe71de12	-0.2361987
60	0x3e94a1ef	0.29029796
61	0xbea7e66f	-0.32792994
62	0xbdd3c0e6	-0.10339527
63	0xbeb730a0	-0.35779285
64	0xbd7481a9	-0.059693966
65	0x3dc0debb	0.094174825
66	0xbba11a98	-0.0049165003
67	0xbe412e4a	-0.18865314
68	0xbe80832a	-0.2510007
69	0x3db9c455	0.090706505
70	0x3e9d276d	0.30694142
71	0x3ea4b35d	0.32168093
72	0xbeb63f74	-0.35595286
73	0x3eafff2b	0.34374365
74	0x3cf3ccf1	0.02976081
75	0xbe3cbee3	-0.18432193
76	0xbd122c8a	-0.035687007
77	0xbce23177	-0.027611477
78	0x3eb47bd5	0.35250726
79	0xbb86597c	-0.004100023
80	0x3deaf23b	0.11471983
81	0x3daa0329	0.08301384
82	0xbe2fce40	-0.17168522
83	0x3e3053f1	0.17219521
84	0xbe06546c	-0.13118142
85	0x3e9dc1a0	0.30811787
86	0x3deee7f4	0.11665335
87	0xbeb1e543	-0.34745225
88	0xbea06d14	-0.3133322
89	0x3eb85966	0.36005706
90	0xbdcfa5e9	-0.10139067
91	0xbcc4628d	-0.023972774
92	0xbea819a7	-0.3283207
93	0x3ec0287b	0.37530884
94	0x3ebfbfa8	0.3745091
95	0xbe9cc751	-0.30620816
96	0x3c3bd1b5	0.011463572
97	0x3c0de39e	0.008660225
98	0x3dff44ab	0.12464269
99	0xbe628b4d	-0.22123452
100	0x3dc96d96	0.09835355
101	0xbe9e822f	-0.30958697
102	0x3eb43c92	0.3520246
103	0xbdf1dadb	-0.118093215
104	0xbe90dc24	-0.28292954
105	0x3e69dc0e	0.2283785
106	0xbe6226cd	-0.22085114
107	0x3dccb0b3	0.0999464
108	0xbd98e90f	-0.074663274
109	0x3e3c4e30	0.18389201
110	0xbb988828	-0.004654903
111	0x3dacd147	0.08438354
112	0xbe328894	-0.17434913
113	0x3d6ecd57	0.058301296
114	0xbe7cc5fa	-0.24684897
115	0x3e74afa5	0.23895128
116	0xbec0177f	-0.37517926
117	0x3e1f8380	0.15577507
118	0xbdd72225	-0.105045594
119	0x3e5c8130	0.21533656
120	0xbce7b61e	-0.028285082
121	0xbdd4c808	-0.103897154
122	0xbe8a7e13	-0.27049312
123	0xbd21283c	-0.03934501
124	0x3e9709d1	0.29499677
125	0xbe8cbf6e	-0.274898
126	0x3e2efc95	0.1708854
127	0xbec0da27	-0.37666437
128	0xbdcad524	-0.099039346
129	0xbdc6f5ae	-0.097148284
130	0x3ea782e5	0.32717052
131	0x3cb9f309	0.022698896
132	0xbe9d4c9e	-0.30722517
133	0x3e94fa81	0.2909737
134	0x3e083942	0.13303092
135	0x3e478277	0.19483362
136	0x3ce2f0c8	0.027702704
137	0x3ebb2a30	0.36555624
138	0x3e87ecdb	0.26547894
139	0xbdcde052	-0.10052551
140	0x3d63dd75	0.05563112
141	0x3e37dddd	0.17955728
142	0x3dafe0ae	0.08587776
143	0x3e867654	0.26262152
144	0xbd9229d2	-0.07136883
145	0xbe35ad31	-0.17741849
146	0x3e230584	0.15920073
147	0x3e519796	0.20467982
148	0xbe4f0cc8	-0.2021972
149	0xbe741430	-0.23835826
150	0xbe0f77e5	-0.1401058
151	0x3e2fa163	0.17151408
152	0xbe5bbc10	-0.21458459
153	0xbe94be36	-0.2905137
154	0xbe07c95a	-0.13260403
155	0xbe1431dc	-0.14472145
156	0x3eb1e253	0.34742984
157	0xbe97cc24	-0.29647934
158	0xbea04a28	-0.31306577
159	0x3e6a0b7a	0.2285594
160	0x3ce523a9	0.027971106
161	0xbda9b964	-0.082873136
162	0x3d092a77	0.033487763
163	0x3e96dcd4	0.29465353
164	0xbe120059	-0.14257945
165	0xbeb1bf51	-0.34716275
166	0x3e854475	0.2602879
167	0x3d695063	0.05696143
168	0xbe82d154	-0.2555033
169	0xbe5e4d50	-0.2170918
170	0xbe86c074	-0.26318705
171	0xbdfd5246	-0.12369208
172	0x3e13995e	0.14413974
173	0x3dd0dfc8	0.10198933
174	0xbe8cd7b4	-0.27508318
175	0x3e5c5287	0.21515857
176	0x3d13aa5e	0.036051147
177	0xbe8144a0	-0.2524767
178	0xbe560218	-0.20899236
179	0xbe91a5cc	-0.28446805
180	0x3e500dfe	0.20317838
181	0x3ebd0087	0.36914465
182	0xbdde25fa	-0.10847087
183	0x3ebb84f4	0.36624873
184	0xbe446943	-0.19180779
185	0x3e08c995	0.13358147
186	0x3db386dc	0.08765957
187	0x3d95b5fe	0.07310103
188	0x3cff1648	0.031138554
189	0x3e9f4d30	0.31113577
190	0x3d802ea6	0.062588975
191	0xbea331a1	-0.318738
192	0x3e609dce	0.21935198
193	0xbd701da1	-0.058622006
194	0xbd647b2a	-0.05578152
195	0x3e5a5e2a	0.21324983
196	0xbe53f4cf	-0.20698856
197	0x3e09d3b8	0.1345967
198	0xbe592676	-0.21206078
199	0xbdd56c26	-0.10421018
200	0x3e69db1d	0.22837491
201	0x3e112beb	0.1417691
202	0xbde21e34	-0.11040917
203	0x3e88246d	0.2659029
204	0x3ea6f398	0.32607722
205	0x3e1d5d8b	0.15367715
206	0x3eb66883	0.3562661
207	0x3dc29d1f	0.09502625
208	0x3db8f825	0.09031705
209	0xbeb3c03b	-0.35107598
210	0xbe9d62c5	-0.30739418
211	0x3d98c9f8	0.074603975
212	0x3c7e69a3	0.015528115
213	0x3c186e79	0.0093036825
214	0xbe054947	-0.13016234
215	0xbe153ecb	-0.14574735
216	0xbe4d33ff	-0.20039366
217	0x3ea7f858	0.3280666
218	0x3e92a1fb	0.28639206
219	0x3e84d7a0	0.2594576
220	0x3d10714d	0.035264302
221	0x3e8c6411	0.27420095
222	0xbec02e14	-0.37535155
223	0xbe82ebc5	-0.25570503
224	0xbeb75db5	-0.3581368
225	0xbbff8859	-0.0077982363
226	0x3e8cb567	0.2748215
227	0x3d5cec10	0.053936064
228	0x3e6e469d	0.23269124
229	0xbe8eede1	-0.27915862
230	0x3e3f7067	0.18695222
231	0xbe62fdaa	-0.22167078
232	0x3eb37da9	0.3505681
233	0xbe68b6ea	-0.22726026
234	0xbe803d82	-0.25046927
235	0xbda60872	-0.081070796
236	0xbd7f4b4a	-0.06232766
237	0x3d96e324	0.073675424
238	0x3bc53b1f	0.0060190107
239	0x3eb7c2f0	0.35890913
240	0xbdf842e9	-0.12122137
241	0xbe21a005	-0.15783699
242	0x3e9599fb	0.2921904
243	0x3eb16987	0.34650823
244	0x3e0e5b9c	0.13902134
245	0xbea05b68	-0.31319737
246	0x3df75705	0.120771445
247	0x3e83fefa	0.2578047
248	0x3d212f9d	0.03935205
249	0x3d80aa61	0.06282497
250	0xbe0f6de9	-0.14006771
251	0x3e215e13	0.15758543
252	0xbe8d1091	-0.27551702
253	0x3e98d898	0.29852748
254	0xbead93c0	-0.33901787
255	0x3e0185d5	0.12648709
